models/basecnn-0.01-8.pt (torch, 578967 bytes, 6 tensors)

conv1.weight f4 [32, 1, 3, 3]
000000 d0 67 96 3e 6e 2d 91 3e ba 00 cf 3e 6f fc 91 be
       0.29376078 0.28354973 0.40430242 -0.28512904
000010 17 99 72 bd 71 f8 83 3e 0a 13 87 be 36 b4 c2 3c
       -0.05922803 0.25775483 -0.26381713 0.023767572
000020 53 68 b6 3e ca ac cb 3e 47 45 a1 3e 35 dd ca 3e
       0.35626468 0.39780265 0.31498167 0.39621893
000030 db 55 96 3e 27 a4 25 be 8c 29 03 3b 66 31 7f 3e
       0.29362378 -0.161759 0.0020013778 0.24921188
000040 29 80 b3 bd a6 98 59 3e c1 86 cf bd 8c 37 e0 be
       -0.08764679 0.21249637 -0.10133124 -0.4379238
000050 a2 13 16 be f8 43 59 be 9a 4d bd be 6c 90 cd bc
       -0.14655927 -0.21217334 -0.36973268 -0.02509328
000060 0b 03 47 bd d8 fb 1b be 23 65 ad 3e 19 e2 d7 bc
       -0.048586886 -0.1523279 0.33866224 -0.026352929
000070 7b 81 8a bd 6d 66 aa 3d cb 0a 94 3e 49 ab df 3e
       -0.06762978 0.083203174 0.28914484 0.43685368
000080 5c 4c cc 3d 0c 3e 58 3e bc e7 d2 3e 62 3b 1c bc
       0.09975502 0.21117419 0.41192424 -0.009535642
000090 84 14 97 be f3 a1 39 be f5 e8 e1 3e 9c fc 15 bd
       -0.2950784 -0.18128185 0.44123045 -0.03661786
0000a0 b9 e2 b5 3e 2a 16 2d 3e 46 4b d7 3d 0a 6f 35 3e
       0.35524538 0.16902986 0.10512404 0.1771814
0000b0 96 0a 26 3e 10 7d a5 bd 53 2a 35 3e 40 7d fe bd
       0.16214976 -0.080804944 0.17691927 -0.12426233
0000c0 8f 62 c6 3e de d7 0d 3e 13 cf a2 3d d0 a7 2b 3e
       0.3874707 0.13851878 0.079496525 0.16763234
0000d0 16 b9 b8 3e 2a f7 cd 3e 31 9d 31 be 09 1c a9 be
       0.3607871 0.40227634 -0.1734512 -0.33029202
0000e0 78 0d f8 bc 20 64 3d be 9e db a7 be be 82 c6 3e
       -0.03027986 -0.18495226 -0.32784742 0.38771623
0000f0 eb b4 d5 be 96 8f 4d be cc 41 d8 3e c9 a2 d5 3d
       -0.41739592 -0.20074305 0.422377 0.104314394
000100 31 5c d8 3e 54 8b d1 be 54 09 a7 3e c4 11 7d 3e
       0.42257836 -0.4092661 0.32624304 0.24713808
000110 8b 99 b0 be 43 fc d3 3e 52 f4 bd 3e aa 11 ba be
       -0.34492144 0.41403398 0.37100464 -0.36341602
000120 06 77 6c bc 88 db 6b be e0 18 d9 3c b5 e4 a7 be
       -0.014432674 -0.23032963 0.02650112 -0.32791677
000130 72 2a b4 bb 87 6c 13 be ba 7d f7 bd 3b 47 72 bd
       -0.005498224 -0.14396869 -0.12084527 -0.059149962
000140 c1 c4 7c 3d b9 f0 3d 3e 0d 8c d5 3c ee ba ae be
       0.061711077 0.1854886 0.026067758 -0.3412699
000150 3e 34 82 be 13 41 6c 3c 50 a0 7b 3e 5a 90 2c 3e
       -0.25430483 0.014419812 0.24572873 0.16851941
000160 8c 15 05 be 67 8c 64 3e cf 1a 70 be dd fd 89 bd
       -0.129965 0.22319184 -0.23447727 -0.06737874
000170 eb e4 ae 3e d4 6f 3a be c7 02 dc 3c ae 2a 21 3e
       0.34159026 -0.18206722 0.026856793 0.15738937
000180 ac 1c 4d 3e f8 9d bc be cb 09 3e 3e 13 6c a4 be
       0.20030469 -0.3683927 0.18558423 -0.32113704
000190 cf 15 8a 3e c7 c8 10 be ea ec d4 3d 9b b6 33 3e
       0.26969764 -0.1413909 0.1039675 0.17550127
0001a0 7e 98 71 be 8a f8 df 3d 2a b3 33 3e 80 4e 82 be
       -0.23593327 0.10936077 0.17548814 -0.25450516
0001b0 a1 45 e4 bd 9b 8a 91 be 96 4f 9c 3e c5 f1 a7 3e
       -0.11146093 -0.2842606 0.3052947 0.32801643
0001c0 ef e7 08 3e 34 ba 9e 3e cd fc 01 be 4d eb 63 3d
       0.13369726 0.31001437 -0.12694092 0.055644322
0001d0 9f 21 90 be 98 7f 59 bd 7b a3 08 be 38 81 24 3d
       -0.2815065 -0.0531002 -0.13343613 0.040162295
0001e0 0a c4 76 be 01 af 68 3e 47 dc 8f be f3 ce 9a be
       -0.2409822 0.22723009 -0.28097746 -0.30236015
0001f0 13 30 4b 3e af a0 f7 bc 8a 65 92 bd bd 09 66 3e
       0.19842558 -0.030227987 -0.07148273 0.22464652
000200 f6 6a 61 3e 88 78 b0 be 39 69 f1 bd cf a0 a8 be
       0.22013459 -0.34466958 -0.11787648 -0.32935187
000210 f3 30 44 be ef f4 fb bd 84 e6 52 3c fd b4 52 be
       -0.19159298 -0.12302577 0.012872342 -0.20576854
000220 56 34 3d be b5 9b b7 be 1f a7 26 3e 7f 02 a8 bc
       -0.18476996 -0.35860983 0.16274689 -0.020509003
000230 8c e7 67 3e dc 85 02 3e 95 e3 8f 3e a2 bd 83 be
       0.22646922 0.12746376 0.2810332 -0.25730616
000240 12 56 91 3e 50 ed 09 be f2 2a b5 bd 61 91 3b bc
       0.2838598 -0.13469434 -0.08846082 -0.011448235
000250 da 4b 8b 3e 0e 06 4f be 2a fc 16 3d 26 c4 56 3e
       0.27206308 -0.20217153 0.036861576 0.20973262
000260 fd fe c3 bd e6 3e 76 3e ce da 9a 3e 46 5f d2 3e
       -0.095701195 0.24047431 0.3024506 0.41088313
000270 99 ff 0e 3e 36 72 81 3e 27 b7 01 be 3d 2a 03 bf
       0.1396469 0.2528245 -0.12667523 -0.51236326
000280 93 f4 f1 be 60 b2 35 3e 18 a8 ad bd c5 1f 3a 3e
       -0.47256908 0.17743826 -0.08479327 0.18176182
000290 b7 fc a8 bd ff fd 88 be a7 d0 f9 bd 6c b5 3c 3e
       -0.082513265 -0.26756284 -0.121980004 0.18428582
0002a0 1a 9f b5 bd 27 58 6b 3d 60 3a 9a be 09 89 cb 3e
       -0.08868237 0.057457116 -0.30122662 0.39752987
0002b0 a7 0a 02 bc e9 ba d3 be 42 70 97 3d 15 80 dc 3e
       -0.00793711 -0.4135354 0.07394458 0.4306647
0002c0 9e c9 f1 3c 42 45 15 be 49 08 b6 3e 63 5d 5b 3e
       0.029515084 -0.14577201 0.35553196 0.21422343
0002d0 bd 24 0e be 16 6b 8a 3e bd 86 34 3d 2b 97 af bd
       -0.13881202 0.27034825 0.04407381 -0.08573755
0002e0 e9 72 1e be 0b f3 91 3e 9e 7e 4d 3d 72 f9 62 bd
       -0.15473522 0.2850574 0.05016958 -0.05541367
0002f0 9d fd af bd 0d bd b8 be 81 0a d5 be 10 33 e9 3b
       -0.08593295 -0.36081734 -0.41609576 0.007116683
000300 23 d5 78 3e 6b 0a b7 3d 6e 7c 22 3e f4 81 9d bc
       0.24300055 0.08937534 0.15867779 -0.019227006
000310 f3 21 c4 3e d5 94 23 bd 9f 6c b7 3c 8f 31 ab bd
       0.3830715 -0.03993686 0.022390662 -0.08359062
000320 00 4c ca 3c 42 5c 52 be d4 aa 85 bb 6b 55 b7 3d
       0.024694443 -0.20543006 -0.004079202 0.08951839
000330 63 06 6d 3e f6 24 21 bd ae a3 44 be b1 65 d6 be
       0.23146968 -0.03934189 -0.19203064 -0.4187446
000340 29 2c 16 be f4 3e e5 be 0a 51 8f 3d cd a9 a5 3e
       -0.14665283 -0.44774592 0.06997879 0.3235611
000350 0b e9 81 3e a8 14 89 3e d6 ff 83 bc 2b c2 e7 bc
       0.2537311 0.26773572 -0.016113203 -0.028290829
000360 17 d0 c3 3d 7c 28 42 3e 08 bc e6 bd 53 38 8e 3e
       0.09561174 0.18960756 -0.11266333 0.27777347
000370 d8 e5 e4 bd 6d 35 09 be df 35 23 3e bd 96 a6 be
       -0.11176652 -0.13399287 0.15938519 -0.3253688
000380 0a 89 93 be c9 a5 b5 3e 77 9a 17 3d 89 1e a5 3e
       -0.2881549 0.35478047 0.037012544 0.3224986
000390 b8 d8 b9 be 70 09 bb be b2 ba 8e be e5 f5 91 be
       -0.36298156 -0.36530638 -0.27876812 -0.28507915
0003a0 7e 6c 32 be e9 3b de be 27 70 8c 3e 54 15 ba 3d
       -0.17424199 -0.43405083 0.27429315 0.09086099
0003b0 9e 28 e4 be c1 06 e7 3e 73 e4 9a be ff 5c 32 bd
       -0.44562238 0.4512234 -0.30252418 -0.04354572
0003c0 19 94 12 3e 8a 4d 9d be ea 52 a6 be 0f a5 0e bd
       0.14314307 -0.3072322 -0.32485133 -0.03482538
0003d0 8d e2 44 be 76 35 ca 3d 30 0d 86 bd 38 fa c2 3c
       -0.19227047 0.09873478 -0.06545484 0.023800954
0003e0 10 db 94 be cb 60 d4 3e 20 f3 a2 3d f3 48 69 be
       -0.2907338 0.41480097 0.07956529 -0.22781734
0003f0 48 8a 64 3e 89 64 31 3e cf af b1 3d f8 48 86 3d
       0.22318375 0.17323507 0.08676111 0.065568864

conv1.bias f4 [32]
000000 5c 41 cb 3e 24 e4 ba 3e 72 93 08 3e 77 31 ff 3e
       0.39698303 0.36502182 0.13337496 0.49842426
000010 1f 1f 1e 3e 0f 20 3a bd 44 27 1b 3e 95 ff 8a 3e
       0.1544156 -0.04544073 0.15151697 0.2714812
000020 6c 12 c5 bd 66 b8 97 be e0 11 64 3d 8d b3 19 bd
       -0.09622654 -0.29632872 0.05568111 -0.03752475
000030 ea b1 6e be 90 23 62 3e 64 bf 4b 3c 84 89 26 3e
       -0.23310056 0.22083879 0.012435768 0.16263396
000040 c5 dd b0 3d 99 f6 a0 bd 7d cf b3 bd 51 48 2a 3e
       0.08636049 -0.07859535 -0.087798096 0.16629149
000050 b6 74 87 be e0 b6 dd 3c bd c9 fe 3d b5 e2 23 3d
       -0.2645623 0.02706474 0.12440822 0.040011127
000060 95 39 94 3d b2 0f dd 3d c8 c9 26 3e 70 46 a5 3e
       0.072375454 0.10794009 0.16287911 0.32280302
000070 fa c6 97 3e bf 91 30 3d 78 dd 40 be 81 93 a5 3e
       0.29643995 0.043107744 -0.18834484 0.323391

conv2.weight f4 [64, 32, 3, 3]
000000 9a 0e fa 3c 78 24 e3 bc 61 61 49 bd 57 ba 16 bc
       0.03052454 -0.02772735 -0.049165133 -0.0091997
000010 95 3d 9d bd 2d 97 38 bc 72 d6 fc 3b bd 1f a5 bc
       -0.076777615 -0.011266512 0.0077159936 -0.020156736
000020 a0 ea ea bc 68 a0 7f 3c 59 3d 26 3d b6 ca 07 bd
       -0.028676331 0.015602209 0.04058585 -0.033152305
000030 ed 13 10 3d e2 63 7d bd 48 65 a5 bc f0 c8 b7 3c
       0.035175253 -0.061862834 -0.020189896 0.022434682
000040 a3 76 18 bd cf 63 bb bc 08 fb 18 bd 2c e5 84 3a
       -0.037222516 -0.02287474 -0.037348777 0.0010139099
000050 88 a7 fe bc 31 4f 46 3d 3b ab 42 3d 32 69 f2 3c
       -0.031085745 0.048415367 0.04752658 0.029591177
000060 18 a5 25 3d 61 52 b0 bc c6 fd fd 3b 98 fe 00 3d
       0.04044065 -0.021523656 0.0077511994 0.0314928
000070 fc 26 52 bd 52 a2 11 3d 02 91 10 bd 9c 59 54 bd
       -0.05130671 0.03555519 -0.03529454 -0.05184327
000080 1c 6f 47 bc 6f ec 4f bd e3 ef 5e bd 96 55 a8 bb
       -0.012172487 -0.05076259 -0.054427993 -0.0051371558
000090 27 e8 80 bd 6b de 26 3d cd a3 84 bd 1c 31 75 bd
       -0.062942795 0.040739458 -0.06476555 -0.059861287
0000a0 df 29 2b 3d e9 97 86 bd 28 1f 0e 3d 8e 9c c3 bc
       0.04178798 -0.06571943 0.03469768 -0.023878362
0000b0 90 64 2e bb 02 03 04 ba a0 ea c4 3b 77 df 42 3c
       -0.0026610233 -0.00050358486 0.006009415 0.0118940985
0000c0 09 ee e7 3c 49 a9 26 3d 91 7e 6a bd b4 29 4b bd
       0.028311746 0.040688787 -0.05724961 -0.049600318
0000d0 f1 de 66 bb 0f 3f 31 3d 02 0d 47 bd 91 80 58 bd
       -0.0035228098 0.043273028 -0.04859639 -0.052856985
0000e0 83 81 62 3c 4d 65 6f bd 6c 4f f1 3c 44 cf e5 bc
       0.013824823 -0.058446217 0.029456817 -0.028052934
0000f0 77 39 9d b9 c0 2b 4c bd 18 64 99 3c a3 99 6e bd
       -0.00029988188 -0.04984641 0.018724486 -0.05825199
000100 c8 56 99 bc 70 e8 6f bd a0 e5 23 bc 9e 5d 89 bd
       -0.018718138 -0.05857128 -0.010003477 -0.06707309
000110 9a 7a 9b bd 0c af 7e 3b 0c 2e bc 3a e4 de 13 bc
       -0.07591744 0.003886166 0.0014356985 -0.009025309
000120 7b 66 53 bb 7a 3c 5e 3c 2a 64 33 bd 12 c2 6d 3d
       -0.0032257128 0.013564223 -0.043796696 0.058046408
000130 45 56 bf 3a c6 78 2d 3d aa f4 3f 3c 33 f7 56 3d
       0.0014597854 0.042351507 0.011716047 0.05248184
000140 03 b1 9d bc d4 35 2c bd 4d 18 91 bc 6f 73 23 bd
       -0.019249445 -0.042043522 -0.017711783 -0.039905008
000150 a8 19 1c bd 72 ea cc bc 47 c9 32 3d e4 eb 18 3d
       -0.038110405 -0.025014136 0.043648984 0.037334338
000160 d9 97 8e bc 02 3b 42 bd 0d 10 18 bc 56 fe 90 bd
       -0.017406391 -0.047419555 -0.009281171 -0.07079761
000170 55 65 a1 3a 3b 45 68 3c f5 f4 22 bc 39 80 5c bd
       0.0012313524 0.014176662 -0.009946098 -0.05383322
000180 fe 66 31 bd 6b 51 ef 3a 21 56 16 3d ca f8 1d bd
       -0.04331111 0.0018258517 0.036703233 -0.038567342
000190 5c b9 30 3d 07 39 72 3c 40 3e 4b bd fb 0d 03 bd
       0.043145522 0.014784104 -0.049619913 -0.031995755
0001a0 48 66 55 3d 46 40 56 3a 5c 9b 44 bd 8e 3c 0d bd
       0.052099496 0.00081730296 -0.047999725 -0.034481578
0001b0 c1 7f db 3c 9c d8 43 3d 11 71 2c bb e6 34 e5 3c
       0.026794316 0.047813997 -0.002631251 0.027979326
0001c0 5e 8c 24 3d 4c 88 18 bd 7b b0 73 3c 59 dc 27 3c
       0.040172927 -0.037239358 0.014873619 0.010245406
0001d0 2a a1 4e bd 60 38 c1 bc e1 6a 14 bc c8 6a 4b bc
       -0.050446667 -0.023586452 -0.009058685 -0.012415595
0001e0 fc 9a 7e 3d 0b 41 43 3d 0a d4 7f 3d b5 05 86 bc
       0.062159523 0.04766945 0.062458076 -0.016360143
0001f0 89 7c 32 3d e3 e8 1a bd c7 85 b8 bc 31 7b 44 bb
       0.043575797 -0.037819754 -0.022524728 -0.0029980654
000200 75 90 99 3c 5b 9b 6d bc 8f 43 5b 3c dc 3d a4 3c
       0.01874564 -0.014502372 0.013382806 0.020049028
000210 ca 29 20 bd 82 d3 14 bd 42 ea 3f bd 80 bb 8d bb
       -0.039102353 -0.036334522 -0.046854265 -0.0043253303
000220 fd 0b 41 3d 45 a2 52 bc 4c f1 17 bd f2 2d 6a bd
       0.047130574 -0.012856071 -0.037095353 -0.057172723
000230 66 c7 29 3d 2b 10 58 bd d2 f6 d2 3c 92 34 a5 3c
       0.041449927 -0.052749794 0.025752459 0.020166669
000240 5d 3d 15 bc 13 50 01 3d 74 52 a2 bb 55 e2 7d bd
       -0.009108868 0.031570505 -0.004953677 -0.061983425
000250 4e b7 16 3d 6e 9c 3a bd fb b9 9e bc f7 a6 5b bc
       0.036795907 -0.04555934 -0.019375792 -0.013406507
000260 7a a1 44 bd 01 61 c2 bc 6b 2a 29 bd da 1d 2a bc
       -0.04800556 -0.023727896 -0.04130022 -0.010383094
000270 5f 74 43 bd d5 b8 7f bc 82 a3 6b bd 45 e1 22 3d
       -0.047718402 -0.015608032 -0.05752898 0.039765615
000280 8e 30 34 bc 49 19 db bb 65 cf 19 bd e0 7f 6b bd
       -0.010997904 -0.006686364 -0.037551302 -0.057494998
000290 ca 8d c9 bc cc ea 3d 3d 08 4c 53 bd 6c 18 a1 3c
       -0.024603743 0.046366498 -0.05158618 0.019664966
0002a0 da 65 e7 bc ac eb 1a bd 07 86 4e bc 8f 8d 4a bd
       -0.028246809 -0.03782241 -0.012605197 -0.049451407
0002b0 37 93 77 bc 60 77 1a 3d 69 67 90 bd b2 43 10 bd
       -0.015110782 0.0377115 -0.07050974 -0.03522081
0002c0 da ce 19 3c 29 fa a1 bc 0a 67 f9 bc ed d4 88 bb
       0.009387696 -0.019772606 -0.03044464 -0.0041757734
0002d0 31 22 44 bb c5 56 02 bb 9b 8d 2b bd 42 8f 5d 3d
       -0.0029927606 -0.0019888144 -0.041883092 0.0540917
0002e0 06 80 fc bc a2 d5 1f 3c f9 5f 67 3d b3 00 f6 3c
       -0.030822765 0.009755524 0.05648801 0.03002963
0002f0 2f 32 44 3d 6f c4 30 bd 64 6f aa 3c 53 1c 5e bc
       0.04789942 -0.043156084 0.020805068 -0.013556558
000300 d5 3c 04 bd de 7b e2 bc 91 9c 0a 3d 36 d6 b6 3b
       -0.032284576 -0.027646955 0.03384072 0.005579735
000310 71 80 88 3d e6 47 0a 3d 8b 8c 47 3d 0e 92 2d bd
       0.06665123 0.033759974 0.048718017 -0.042375617
000320 2b 3e 5f 3d e1 3a f8 bc 47 2a 7a b9 54 a3 b5 3c
       0.054502647 -0.030301513 -0.00023857607 0.022172607
000330 62 67 5f bd 2f cb 3a bd f2 6e 22 3d a8 33 55 3d
       -0.054541953 -0.045603927 0.039656587 0.052051216
000340 39 cf ad bc 6c 28 b2 bc fe ef 2c 3d 3a 03 47 3c
       -0.021216976 -0.02174779 0.042221062 0.012146765
000350 d0 10 28 3c f4 a2 6a 3d 88 31 c4 bc 98 4c 0d 3c
       0.010257915 0.05728431 -0.0239494 0.008624218
000360 ae 67 10 bc 52 d0 3e 3d 67 61 30 3d d1 dc 1f bd
       -0.008813782 0.04658539 0.04306164 -0.039028946
000370 96 0b 47 bc 40 53 0d 3d e6 de 49 bd 9d f8 8d bd
       -0.012148758 0.03450322 -0.04928484 -0.06932185
000380 ba b2 3e 3d b5 f3 1d 3d 1c be af bc 4f 44 01 3d
       0.046557166 0.038562495 -0.021452956 0.031559285
000390 ce b7 b6 3a c9 28 93 bc 94 97 21 3d 07 b2 b0 bc
       0.0013940276 -0.017963784 0.039451197 -0.021569265
0003a0 22 24 05 bd 72 bb 0e 3d d4 5e 1f 3d af 01 a4 bb
       -0.032505162 0.03484673 0.038908795 -0.0050050835
0003b0 ad 3b 7d 3c 67 22 03 3d 95 60 87 3b e5 eb cc bb
       0.015456122 0.03201523 0.0041313865 -0.0062537068
0003c0 e6 02 0c bd d8 4e 95 bd c5 ff a5 bc 7b 0d ad 3b
       -0.03418245 -0.07290429 -0.020263562 0.005281148
0003d0 a5 c6 5d bc 1d 5b 87 bc 83 54 95 bd 3a 57 4b bd
       -0.01353613 -0.016522938 -0.0729151 -0.049643733
0003e0 71 dd 16 bd 85 1d cf bc 1e d4 99 3b 41 ec 7c 3d
       -0.036832277 -0.02528263 0.004694476 0.061748747
0003f0 38 66 cc bc 09 69 a6 3b fd b3 7c 3c 1a 1f 8b 3d
       -0.024951085 0.005078439 0.015423772 0.067930415

conv2.bias f4 [64]
000000 69 ff 7e bd c0 d3 17 bc 85 21 78 bc 71 21 15 3d
       -0.062255297 -0.009266794 -0.01514471 0.036408845
000010 89 52 18 3d 16 61 a5 3d 08 25 40 3d 37 77 84 3c
       0.037188087 0.08075158 0.046910316 0.016170127
000020 24 27 80 3d 12 f8 27 3c 97 7c 83 bc 96 22 25 3d
       0.062574655 0.010252016 -0.01605062 0.040316187
000030 68 2b d4 3c e6 17 c3 bc f1 58 c9 bc 3f a8 3c 3c
       0.025899604 -0.023815107 -0.024578543 0.011514722
000040 27 a9 cc bc 21 2f 04 bd 84 e5 6a bd bd 33 50 bd
       -0.024983002 -0.032271508 -0.05734779 -0.05083059
000050 d4 fe c2 3c bf 49 0c 3d 09 3e b8 bc b6 e6 2a bc
       0.023803152 0.034250017 -0.022490518 -0.010430982
000060 cc 6f 34 bd de 44 cc 3c ad d5 ef bc 68 c6 a9 bc
       -0.04405193 0.024935182 -0.029276693 -0.02072449
000070 fd b0 70 3c b9 66 36 3d 26 97 00 3d 88 37 93 3d
       0.014690635 0.044531558 0.031394146 0.07188326
000080 ad 87 14 bd 4e ec 03 bd ee 1c db 3c 7a f9 13 3c
       -0.036262203 -0.03220778 0.026747193 0.009031648
000090 a5 75 0c 3d 52 71 9b 3d 66 fd 88 3c d4 20 6b bc
       0.034291882 0.075899735 0.016722392 -0.014351089
0000a0 ce 47 d7 bc 52 8e 43 bd 26 cf 4b bd 28 18 8d 3d
       -0.026279356 -0.04774315 -0.0497581 0.06889373
0000b0 4d f4 c7 bc 71 3f 84 bd 06 67 8b 3c ef e7 61 3b
       -0.024408484 -0.06457413 0.017016899 0.0034470519
0000c0 6c 93 49 3a 21 89 58 39 6f 49 93 bc b0 2a 49 bb
       0.0007689509 0.0002065045 -0.017979352 -0.003069561
0000d0 eb 9e 90 3c c0 d4 4a bd 6f 09 57 bd 1b ab 5e 3c
       0.017653903 -0.0495193 -0.05249923 0.013590599
0000e0 fc 75 9c 3c 20 4e fd bc 52 89 8f 3c 8e 61 bf bc
       0.019099228 -0.030921042 0.017521534 -0.023361947
0000f0 cf 25 9d bd 3b ec 86 3d 1e 45 87 bd 36 87 b8 3c
       -0.07673227 0.06588026 -0.0660498 0.022525411

fc1.weight f4 [10, 12544]
000000 d8 4c bb 3a b9 d4 56 bb c2 df d0 3b 13 39 8a bb
       0.0014289869 -0.0032780601 0.0063743303 -0.0042182296
000010 53 67 1b bb cb 9a 95 bb 53 e6 21 bb 4b f0 a0 bb
       -0.002371271 -0.004565572 -0.0024703934 -0.0049114577
000020 e2 60 e7 3b 84 de 01 bc 53 a5 cd 3b 54 db f0 3b
       0.00706111 -0.007926587 0.0062758117 0.0073503647
000030 b7 44 8d 38 72 f3 db bb d4 f1 9c 3a 97 dd 79 bb
       6.736203e-05 -0.0067123706 0.0011973926 -0.0038126463
000040 63 b5 a1 ba fe e9 ae bb 3c ea b3 3a d1 04 5f 3a
       -0.0012337383 -0.0053379526 0.0013726423 0.00085074926
000050 30 23 28 3c 31 df 1a 3c e2 94 ce 3a 37 5d 24 bb
       0.010262296 0.009452627 0.0015760923 -0.0025079974
000060 a2 60 3b 3a e2 96 dd 3b 52 d2 4f 3b 64 4a 02 bc
       0.00071478833 0.0067623714 0.0031711054 -0.007952306
000070 05 0f 1b bb ec e9 be 3b 0d b8 aa bb 8f 77 da ba
       -0.0023660075 0.0058262255 -0.005209929 -0.0016667711
000080 d5 1e d1 3b 0c a6 3e 38 c7 7e 53 3b 75 c9 97 3b
       0.0063818493 4.5454173e-05 0.003227161 0.00463217
000090 93 94 1d 3c 42 c5 d4 3b 86 8b 00 3a e1 58 80 3b
       0.009617942 0.0064932415 0.0004903603 0.003916845
0000a0 a5 30 04 3c ab 00 09 bc bd 38 0c bc a8 7f 9e 3b
       0.008068238 -0.008361976 -0.008558449 0.004836995
0000b0 9d 21 04 bb e2 ad fe ba 35 2b 01 bc ef 44 83 bc
       -0.0020161637 -0.0019430483 -0.0078838365 -0.016024081
0000c0 89 16 cb bb 97 a6 a9 bb 03 f4 b0 bb b3 e1 96 3b
       -0.0061977548 -0.0051773298 -0.005400182 0.004604542
0000d0 37 61 8f bb 0e 72 15 bc 92 60 34 ba ba f4 d0 39
       -0.0043756026 -0.009121431 -0.0006880845 0.00039855187
0000e0 e3 74 f1 3b d4 9d 1e 3b 05 62 3e bb 15 3f 9f 3b
       0.0073686703 0.002420296 -0.0029050123 0.004859815
0000f0 1b 5b 7e bc 0e 66 95 3b a4 ad cd 3b 3f be 1d bc
       -0.015524651 0.004559285 0.006276803 -0.009627878
000100 c1 58 a4 bc d0 a2 8e bc d9 b5 30 bc b4 b7 80 bc
       -0.020061852 -0.01741162 -0.010785543 -0.015712596
000110 bd f7 96 bb 22 a2 4b 39 0d 53 66 3b c1 5d c5 bb
       -0.0046071694 0.00019419988 0.0035144717 -0.006023139
000120 e9 02 6b 3b 8a 7a 11 bc f0 70 02 3c 01 bd 34 bb
       0.003585989 -0.008879313 0.007961497 -0.0027578475
000130 f2 03 56 bc b9 1d 84 bc ef 1b a1 bc 78 b7 85 bc
       -0.013062464 -0.016127454 -0.01966664 -0.016322836
000140 c6 c9 13 bc 67 a7 3e bc ad 5b 50 ba fd f7 57 ba
       -0.0090202745 -0.0116365915 -0.0007948231 -0.0008238552
000150 78 e5 33 3b 2c d4 8a ba 3d 11 a9 3b fb 31 08 bc
       0.0027450006 -0.0010591797 0.0051595257 -0.0083126975
000160 52 6f 1c bb 1f d1 20 bb 6b 83 8d ba a0 4c 1d 3c
       -0.0023870063 -0.0024538708 -0.0010796612 0.009600788
000170 62 ff 9c ba 0e f7 a7 bc 54 a8 36 bc bb 61 5d bc
       -0.0011977965 -0.020503547 -0.011148531 -0.01351207
000180 b6 4e 4c bc 6b df d7 3b 78 80 a2 3a b9 b3 b4 3a
       -0.012469938 0.006587913 0.0012397906 0.0013786472
000190 52 65 cb bb 3c 92 f8 bb a9 9f 72 bb a0 77 92 bc
       -0.0062071467 -0.007585792 -0.0037021434 -0.017879307
0001a0 8e 21 85 3b aa a0 26 3c 46 99 23 3c cd 32 0c bc
       0.004062838 0.010170141 0.009985274 -0.008557034
0001b0 8a 81 52 3b 49 3e 53 bc e2 fd 0b bb dd 8b 10 3c
       0.0032120668 -0.012893268 -0.0021361043 0.0088224085
0001c0 59 0f 05 bc 43 7c 49 3b f3 80 7c bb 2a d6 b5 bb
       -0.008121335 0.0030744232 -0.0038529008 -0.005549212
0001d0 f0 5b b5 bc 5e db 04 bb aa 6d 30 bb 92 bd e1 3b
       -0.022138566 -0.0020272355 -0.0026920834 0.0068890536
0001e0 ee fc 25 bb f7 49 f5 3b b0 fc 64 bb d0 76 be 3a
       -0.002532776 0.007485624 -0.0034940653 0.0014531258
0001f0 8a 71 98 3b 44 54 83 3a 47 fd c3 3a 71 d8 a0 bb
       0.004652207 0.001001962 0.0014952802 -0.0049086143
000200 9e 75 0d bc 05 b8 1b bc f3 23 89 bb 18 82 5f bb
       -0.008633999 -0.009504323 -0.0041851937 -0.0034104642
000210 3d 8a 06 bc bd 10 41 3c 59 cf b7 3c d2 97 83 3b
       -0.0082116695 0.011783776 0.022437738 0.004015901
000220 fe 7d b0 3a d7 6c 98 3b 05 2d 1b 3c 5b 87 82 bb
       0.0013465283 0.0046516466 0.009471183 -0.003983421
000230 a4 ea ba ba 12 a1 9f bb f3 e8 ac bb a3 8f db bb
       -0.0014260602 -0.004871496 -0.005276793 -0.0067004724
000240 81 ab e7 3b f1 96 12 bc 95 dc 1b 3c 6a 0a 57 3c
       0.0070700054 -0.00894712 0.00951304 0.0131250415
000250 fe 62 97 3b d0 9d 59 3a 0f cf 10 3c 79 e4 1a 3c
       0.004619955 0.0008301409 0.008838429 0.009453886
000260 a3 e3 c4 bb 49 17 2d 3a 3a 77 c8 3b b5 95 aa 3a
       -0.0060085817 0.0006602896 0.0061177285 0.0013014587
000270 b0 bb 86 bb 0f a4 d7 bb ee d1 d1 bb a3 f6 0e 3b
       -0.0041117296 -0.0065808366 -0.0064031994 0.0021814487
000280 fa f1 21 bc 56 db 20 bc 7c 97 a6 bb 03 79 9e 3b
       -0.009884352 -0.009817919 -0.0050839763 0.004836203
000290 b5 66 91 3b cf f3 83 3b 7b f8 86 3b e3 68 1c bb
       0.0044372925 0.004026867 0.0041189766 -0.0023866228
0002a0 dc 91 48 bb 5f 1f 09 bc 2d 2a 03 bc 71 c4 6b ba
       -0.0030604517 -0.008369296 -0.008005661 -0.00089938106
0002b0 e0 2c f0 3b 26 42 c7 b9 d8 c7 16 3c 0c 9d 69 3b
       0.0073295683 -0.00038005522 0.00920292 0.0035646586
0002c0 9c 27 90 ba bf 72 a9 b9 93 7f 31 39 9c b0 0c bc
       -0.0010998133 -0.00032319684 0.0001692756 -0.008587029
0002d0 eb 96 9a bb 6b 1b 12 bc 15 71 b0 bb 03 1f 2e 3a
       -0.004717698 -0.00891767 -0.005384574 0.00066421943
0002e0 c9 da 84 bb f8 6a c4 bb 0a cc 2e bb 53 6e c4 bb
       -0.0040544015 -0.005994197 -0.002667191 -0.005994597
0002f0 f1 a3 8c 3b 73 b9 be ba 23 c9 cb bb 0d c1 d7 3a
       0.0042920043 -0.0014551118 -0.0062190457 0.0016460732
000300 5c 70 a5 3b 68 06 f3 3b 4e b5 48 3b cb 0d 2a bb
       0.0050487947 0.007416535 0.0030625644 -0.0025948163
000310 ac c7 84 3b b2 0d 08 bb c7 af e8 3b 0f 9b f2 bb
       0.004052123 -0.0020760116 0.0071010324 -0.0074037383
000320 a8 a7 44 bb ac a1 6e bb 7f af ca 3b 58 51 d6 bb
       -0.0030007157 -0.0036412282 0.0061854715 -0.0065404586
000330 1c 23 ee 3a e4 29 f7 3a 05 eb ac 3b fa 54 39 3a
       0.0018168422 0.0018857089 0.00527704 0.00070698524
000340 00 40 ca ba 60 e8 93 32 5e fc e5 bb f1 40 44 b9
       -0.001543045 1.7218724e-08 -0.00701861 -0.00018716209
000350 1e ab fd bb 0f 65 fc bb 05 4f af 3b 42 e9 0a 3c
       -0.007741346 -0.007702477 0.005349996 0.008478465
000360 c5 e2 eb 3b 5f d2 c0 bb dd 0c 9f 3b 51 60 26 3b
       0.007198664 -0.005884453 0.0048538283 0.0025387
000370 17 b2 90 ba a1 80 b9 3a d9 41 8f 39 2b b9 09 3c
       -0.0011039403 0.0014152714 0.00027324146 0.008405964
000380 93 db c1 39 ef 4f f3 bb d7 b7 b9 bb 7c b0 c1 3b
       0.00036975424 -0.0074253003 -0.0056676674 0.005910931
000390 dc 26 b7 3b 84 c5 da bb 77 11 98 bb 99 82 7a 3b
       0.005589349 -0.0066763777 -0.004640754 0.0038224815
0003a0 7d d1 fe ba fe 73 07 3c 16 e6 e0 3b f0 57 0c bb
       -0.0019441094 0.008267401 0.006863366 -0.002141472
0003b0 c1 be f7 3b 74 61 2c bb 0e 5d b4 bb fd 6d d6 bb
       0.0075605814 -0.0026303204 -0.005504257 -0.0065438733
0003c0 dd e3 06 3c 0a 89 7e 3b 70 e0 bc bb 24 e2 cd bb
       0.008233038 0.0038839006 -0.0057640597 -0.0062830616
0003d0 11 30 31 bc 01 a2 12 bc 83 b3 fe bb 12 33 12 bc
       -0.010814683 -0.008949758 -0.0077728643 -0.008923309
0003e0 b0 9c 39 bc 42 13 78 3b 18 44 b7 3b c4 a4 dd 3b
       -0.011328861 0.0037853275 0.005592834 0.0067640264
0003f0 45 71 67 ba 2a 9c 22 3b ea 55 76 bb 93 d8 d3 bb
       -0.0008828829 0.002481232 -0.003758783 -0.0064650266

fc1.bias f4 [10]
000000 a5 ef 68 3b ff 3b d0 bb 22 0c 59 3c 36 0e 0d ba
       0.003554323 -0.0063548083 0.013247522 -0.0005380841
000010 f9 9b 4e 3b 15 ab 6e 3c a2 1b dd bb 39 c0 5b bb
       0.0031526072 0.014567156 -0.006747679 -0.0033531322
000020 55 4e 81 3b a1 70 c7 bb
       0.0039461055 -0.0060864245
