models/basecnn-0.1-5.pt (torch, 578967 bytes, 6 tensors)

conv1.weight f4 [32, 1, 3, 3]
000000 2e f0 c6 3e 8e 3b 95 be 41 a8 25 be 5f c8 34 3e
       0.38855118 -0.29147 -0.16177465 0.1765456
000010 49 66 82 3e c7 f7 66 bc ff c5 dd bd 3f 4e 31 bd
       0.25468662 -0.014097161 -0.108287804 -0.043287512
000020 7c de c7 3e fe a0 23 be 04 0a 1e 3d 0f 41 94 3d
       0.3903693 -0.15979382 0.03858377 0.072389714
000030 02 6a ad 3e 52 98 b7 be c9 e6 25 be 11 27 88 3e
       0.3386994 -0.358584 -0.16201319 0.26592305
000040 e4 81 05 3e 54 b7 82 bd 12 c4 10 3d ab 35 a8 3d
       0.1303783 -0.06382623 0.035343237 0.08213361
000050 04 40 4f 3d d8 4c 5c be ae d6 f5 3d 37 47 dd 3d
       0.05059816 -0.21513689 0.120038375 0.10804599
000060 d6 bd 3b bc 74 32 64 be d3 20 f9 3c 7a 59 22 3e
       -0.011458835 -0.22284871 0.03041116 0.15854445
000070 d3 0e b0 3e 47 47 36 be f2 f2 d3 3c 1d 3a be 3d
       0.3438631 -0.17800628 0.025872681 0.09288428
000080 c3 cc e2 3e 0d fc a3 be 0d fb 33 be 0e 2f 76 be
       0.44296846 -0.32028237 -0.17576237 -0.24041387
000090 a1 95 96 3e 68 f1 87 3e 8e ef 42 3e fd ec 0a be
       0.29411033 0.26551366 0.19036695 -0.13566966
0000a0 d0 4b 4b bd b6 94 89 3e f2 df 06 be cb 17 90 be
       -0.049632847 0.2687127 -0.13171366 -0.28143153
0000b0 24 72 07 3d 52 2f ac 3e 4e 7b 53 be 86 dc 51 be
       0.033067837 0.33629853 -0.20652506 -0.2049428
0000c0 9f 0f 8e be 38 c3 6b be f4 b2 b4 bd 13 26 16 be
       -0.27746293 -0.23023689 -0.08823195 -0.14662962
0000d0 0d 1f b3 bc 6c 7b ea 3e 54 1d b7 be d1 e0 04 3e
       -0.021865392 0.45797288 -0.35764563 0.12976386
0000e0 9e 37 b5 bd 61 2e 2b 3e 65 04 9f 3d 59 ae 88 be
       -0.08848499 0.16716911 0.0776451 -0.26695517
0000f0 af e2 08 3d e6 01 99 3e a1 53 75 3e 3f 71 84 3e
       0.033419307 0.2988426 0.23957683 0.2586765
000100 34 6e b8 3d 64 7e cb be 0e 1b 04 3b 84 35 5d 3e
       0.090053946 -0.39744866 0.0020157727 0.21602446
000110 25 e1 e4 bc d1 55 76 3b 30 53 8a 3e 8d 1b 3f 3e
       -0.027939389 0.0037587772 0.27016592 0.18662854
000120 9e 78 83 3d 44 3d d9 bd a2 fc 91 be ef 57 54 3d
       0.0641949 -0.106073886 -0.28513056 0.051841673
000130 39 f3 71 be f2 c6 bf bd 17 49 9c be 6a 20 9f bd
       -0.23627938 -0.09364118 -0.30524513 -0.07769854
000140 9d a4 81 3e e3 13 ac 3e ab ba 55 3e e7 17 43 3e
       0.25320902 0.33608922 0.2087199 0.19052087
000150 8b 93 04 3e 4d 63 8e 3e a3 53 31 bf 92 05 ee 3e
       0.12946908 0.27810135 -0.69268245 0.46488625
000160 25 e9 16 3e db 4b fb be 34 6a 82 3e 88 36 6c be
       0.14737375 -0.4908131 0.25471652 -0.23067677
000170 9d 13 22 3e 07 07 f6 bd c5 6a d5 bd 97 93 8d be
       0.15827794 -0.12013059 -0.10420755 -0.27651665
000180 6c 6c c4 3d e5 f5 9f 3e ed a4 08 3e 05 e6 f5 be
       0.09590992 0.3124229 0.13344164 -0.48027053
000190 69 2e 54 3d f7 43 b4 bc 71 17 77 bd bb 02 b3 be
       0.051802073 -0.022005064 -0.06032509 -0.3496302
0001a0 71 76 ae be c7 f7 bd 3d a0 58 71 3e 1b df 95 be
       -0.3407474 0.092757754 0.23568964 -0.29271778
0001b0 e7 0d e7 3a f0 43 92 be e1 cf 19 3e 92 67 64 be
       0.0017628045 -0.28567457 0.15020706 -0.22305134
0001c0 bf 9d ab 3e 55 30 28 3e 55 97 32 3e 29 d0 9d bd
       0.33518788 0.16424687 0.17440541 -0.07705719
0001d0 50 10 16 be 5c 52 e4 3e 87 9f b2 be 31 bd bd be
       -0.1465466 0.44594085 -0.34887335 -0.37058404
0001e0 a8 9d 26 3e 99 30 1e 3e 42 56 3d 3e 4a 32 60 3e
       0.16271079 0.15448226 0.18489936 0.21894184
0001f0 f9 84 20 3e 31 58 3a be 1f 70 98 3e e7 d0 7d 3e
       0.15675725 -0.18197705 0.29773042 0.24786721
000200 ea 49 4b 3e b2 6c 7d bc 51 c8 85 3b 35 cf 97 3e
       0.19852415 -0.0154678095 0.0040827175 0.29650274
000210 da 45 2b bc 4b 9c 01 bf ff c0 9d be ab d3 c2 3e
       -0.010453666 -0.5062911 -0.30811307 0.38052115
000220 ba 13 01 3f 65 43 96 3e 67 e5 9a 3e 52 83 62 be
       0.50420725 0.29348293 0.30253145 -0.22120407
000230 56 49 7b 3e f5 a9 15 bf 29 88 0c bf d6 be c1 be
       0.24539694 -0.5846246 -0.54895264 -0.3784091
000240 67 1b c7 be 18 27 ae 3e e7 cb 07 3e 10 1f 0e be
       -0.38888094 0.340142 0.13261376 -0.13879037
000250 5b 57 a6 3e 72 21 c5 3c 58 ac ea bd fe 8f a8 3e
       0.32488522 0.0240638 -0.11458653 0.32922357
000260 73 ce 40 be f9 5b e9 be 40 a2 ae be e2 fe 40 3e
       -0.18828754 -0.45577982 -0.34108162 0.1884723
000270 6e e8 e4 bd 9f cf 7f be 87 b6 02 3f cb 35 77 3d
       -0.11177145 -0.24981545 0.51059765 0.060354035
000280 2e 03 be 3e af 22 3a 3e 35 ac 29 3d 16 f8 f8 be
       0.371118 0.18177293 0.041423995 -0.48626775
000290 58 c7 1d bf 4e 4d 97 3e b3 14 73 3d 4a c1 87 3d
       -0.616323 0.29551166 0.059345912 0.06628664
0002a0 83 ea 08 3f d5 da 99 3e 49 06 93 bc 26 16 06 be
       0.53482836 0.30049768 -0.017947333 -0.13094386
0002b0 b6 a6 b8 3e 25 a1 92 3d 04 ea 48 3e 94 5e ad be
       0.3606469 0.07159642 0.1962052 -0.3386122
0002c0 17 00 c8 be a5 27 d5 3e 74 c3 d8 bd 87 56 9d bd
       -0.3906257 0.4163181 -0.10584155 -0.076825194
0002d0 b2 2d 8b 3d 6b bc 74 3e 9c 1a a4 3e 12 ec 80 be
       0.06795825 0.23900001 0.3205155 -0.25180107
0002e0 71 85 a8 be 9c e9 bf be 76 2c 7a 3d c7 4f 5c 3e
       -0.32914308 -0.37482917 0.061077558 0.21514808
0002f0 7c f7 2e bd da d4 8a 3e 82 88 34 be a6 c3 9d 3e
       -0.04271649 0.27115518 -0.17630199 0.3081333
000300 44 69 52 3e 86 51 82 3e 18 39 57 3e 10 28 f4 bc
       0.20547968 0.25452822 0.21017873 -0.02980426
000310 5d 94 78 be bc 96 50 3e ed 16 64 bc be 12 6b 3e
       -0.24275346 0.2037 -0.013921482 0.22956368
000320 9d 6e 54 3d ae 28 d7 3e 1e ef 64 3e 38 7f c0 be
       0.0518633 0.42023224 0.22356841 -0.3759706
000330 c0 cd fa 3d 78 5b f1 be fb 66 1a be 22 0c f9 3e
       0.12246275 -0.47140098 -0.15078346 0.4864207
000340 6a 93 73 3e da 1d 4d be 0d d4 e4 bd c4 4b f7 3d
       0.23786703 -0.20030919 -0.11173258 0.12074998
000350 b1 84 c5 be 63 9b 19 3e 6e 81 5e 3e a4 49 fa 3d
       -0.38577798 0.15000682 0.21729061 0.12221077
000360 18 0f 6c bd de f7 fa 3d 4b 24 9c 3e 2d 97 6a 3e
       -0.057631582 0.12254308 0.3049644 0.22909231
000370 ba 31 ff bd a1 a7 04 3e a6 c1 4d be ba 71 a5 be
       -0.124606565 0.1295457 -0.20093402 -0.3231333
000380 07 04 52 3e 9c 84 b5 bd f8 87 e1 bd 93 a1 dc 3e
       0.20509349 -0.08863184 -0.11012262 0.4309202
000390 7f e0 f5 3d d5 fe ae be 8d 15 83 bd 7f 7e 87 be
       0.1200571 -0.34178796 -0.06400595 -0.26463696
0003a0 59 10 87 3e 62 48 17 3d e8 c8 74 bb 24 09 6a 3e
       0.2637966 0.036934264 -0.0037351195 0.2285505
0003b0 b0 62 15 3f e0 22 99 be 46 8f 1a be 2e 1a 11 be
       0.5835371 -0.2990942 -0.15093717 -0.14170143
0003c0 9a ba 2c 3e 7f 2a b8 be 90 dc 71 be ad 6c 69 be
       0.16868058 -0.35969922 -0.23619294 -0.22795363
0003d0 2b 0b d3 be d2 57 dd 3d 5a f8 3b 3d 17 06 33 3e
       -0.41219458 0.10807766 0.045891143 0.17482792
0003e0 70 a0 89 3e c3 cb 47 bd fc 15 f6 bd e4 b5 6e 3e
       0.26880217 -0.048778307 -0.12015912 0.23311573
0003f0 a1 94 bf 3e 99 b6 b0 3e 37 f8 59 be 30 df e1 bd
       0.37418082 0.3451431 -0.21286093 -0.11028898

conv1.bias f4 [32]
000000 01 89 4b be fb 03 3d be af 08 e5 bd 77 11 64 3d
       -0.19876482 -0.1845855 -0.11183297 0.05568072
000010 d7 77 b3 3d 40 4f c2 bd 80 f4 1f bc 23 be 6f 3d
       0.08763092 -0.09487772 -0.009762883 0.058530938
000020 32 63 82 be c3 b7 07 3e d1 ea 33 3e 56 f4 f3 be
       -0.25466305 0.13253693 0.17570044 -0.4764735
000030 57 71 53 be 65 c7 87 be 49 78 11 3e c2 8d be bd
       -0.20648704 -0.26519313 0.14206041 -0.09304382
000040 1d 2a d2 3d 72 30 e5 bc 41 4c 6f 3d a1 8b 54 bc
       0.10261939 -0.027977202 0.05842233 -0.012972743
000050 d8 1e da bd 65 0d 4e bd a2 38 ac 3c f1 24 07 3e
       -0.10650414 -0.050305743 0.021023098 0.13197686
000060 08 03 42 be c7 36 77 bd 7d 8a 6f be a4 28 d1 3c
       -0.18946469 -0.060354974 -0.23392673 0.025532074
000070 a2 ab 24 3e 9c 7f 3d 3d 56 7a 95 bd b2 39 96 be
       0.16081098 0.046264276 -0.07298724 -0.29340893

conv2.weight f4 [64, 32, 3, 3]
000000 63 22 fd 3c c5 07 9b 3c 29 07 26 bc d6 a3 51 3d
       0.030900186 0.018924603 -0.010133543 0.051181637
000010 45 1e 17 bd 7b b7 74 bd ef 70 87 3c 94 7e e2 bb
       -0.0368941 -0.059745293 0.016533343 -0.006912062
000020 5b bc 4e 3d 86 6d 80 3a aa ce ca bc 4a bb 92 bc
       0.0504726 0.0009798266 -0.024756748 -0.017911572
000030 5e d6 42 3d 6f 15 3d 3d 65 60 6d bd 63 86 54 3c
       0.047567718 0.04616302 -0.057953257 0.012971493
000040 85 92 2b 3d 4b 1e 43 bd 21 79 20 bd 96 d0 6d 3d
       0.04188778 -0.04763631 -0.039178018 0.05806025
000050 79 6e de bc bf e8 31 bc fd dc 07 bd 29 51 85 bb
       -0.027152287 -0.010858714 -0.033169735 -0.004068513
000060 bc 46 55 3d 1d 71 ea bc 01 1d 62 3a 05 c9 7d 3d
       0.05206941 -0.02861839 0.0008625538 0.061959285
000070 a4 0d 5c 3d ec b1 01 3d c9 85 3a 3d 54 dd be 3c
       0.053723946 0.03166382 0.045537744 0.023298897
000080 a1 18 51 3c 81 ab 63 3d 02 5a 3e 3b f8 af 3b 3d
       0.01276222 0.05558348 0.0029045348 0.045822114
000090 b6 ad 59 bd eb 33 73 bd 29 26 9f 3c 68 a8 32 3c
       -0.05314418 -0.059375685 0.019427376 0.010904409
0000a0 7b 24 42 bc f4 6c 2f 3d f5 80 83 3d 0a c7 c6 bc
       -0.011849518 0.042828515 0.06421081 -0.024264831
0000b0 0b bb af bc 6b 05 a2 3c 19 54 bc 3c b6 54 19 bc
       -0.021451494 0.019777974 0.02298932 -0.009358576
0000c0 46 ad 17 bc b4 f2 83 bd a2 fd 54 3d 43 62 55 bd
       -0.00925762 -0.06442776 0.051999696 -0.052095663
0000d0 bd 5a f0 3d 2e ca d2 3d a7 0d 59 bd ed 22 82 bd
       0.11736057 0.10292469 -0.052991536 -0.06354318
0000e0 fc 3c 37 bc 40 09 17 3d 6c 51 da bc 27 46 83 bd
       -0.011183973 0.036874056 -0.026650153 -0.06409865
0000f0 1d 0b 95 bc 97 73 27 3d ce 19 d4 3c 1f 10 d5 bc
       -0.018193776 0.04088172 0.02589121 -0.026008664
000100 db a2 1c 3d 89 4e 64 bd b2 7b ed bb 5a e0 f6 3c
       0.03824125 -0.05573896 -0.0072474116 0.030136276
000110 c6 9e 19 bc 23 14 a9 bc 57 22 ee bc f3 23 75 bc
       -0.009376233 -0.020639485 -0.029069109 -0.014962184
000120 a9 0a 31 3c 53 94 31 bb c4 72 2d bd 62 33 48 3b
       0.010805764 -0.0027096465 -0.042345777 0.0030548205
000130 47 b0 c1 bc 31 67 34 3d 6e d6 7b bd 64 c3 82 bc
       -0.023643626 0.044043723 -0.061483793 -0.01596231
000140 4d 1d a8 3d 1a 4d 51 bd 15 3b 6f bd f8 5f 70 3c
       0.08208714 -0.05109892 -0.058405954 0.014671318
000150 c0 9f 60 bd 87 79 9d bc dc f3 81 3b 93 88 97 bd
       -0.05483985 -0.019222988 0.003965838 -0.07399096
000160 7c 22 98 3c fc e2 ae bd 4d ff 84 3d cb 4a 1f 3d
       0.018571131 -0.085393876 0.06494007 0.038889688
000170 0d bb 91 bd 4f 73 c5 bb 4d ab df 3c 92 87 86 bc
       -0.07115755 -0.0060257087 0.027303362 -0.016422067
000180 ee 81 ab bc e2 ac c0 bc 75 47 bb 3d 33 10 93 bd
       -0.020935979 -0.023519937 0.09144489 -0.07180824
000190 af 99 b4 bd 59 5f 50 bd e2 ee 9e bd e9 b5 8e bd
       -0.08818375 -0.05087218 -0.07760407 -0.0696829
0001a0 86 84 05 bd be 51 ce bb 58 70 cf bd ca 5c 41 ba
       -0.032597087 -0.0062963655 -0.1012885 -0.00073761924
0001b0 13 7c 29 bd e2 a1 d4 3c 69 cc 7a 3d b0 fb 5b bc
       -0.041378092 0.025956098 0.061230097 -0.013426706
0001c0 d0 49 47 3d a9 88 2f 3d 98 f1 98 bb 3d 8f 13 3d
       0.048654377 0.04285494 -0.004667472 0.036025275
0001d0 30 c6 e3 bc 6a ed 10 3d 06 b6 f2 3b 38 45 66 3c
       -0.027804464 0.035382666 0.007406953 0.014054589
0001e0 ae 86 69 3c 9b 55 39 bd 01 a1 ad 3c 13 96 db bc
       0.014253302 -0.045247655 0.021194937 -0.02680496
0001f0 f7 af b1 3c d9 bc 96 bd 15 52 27 3d a6 af 85 bb
       0.021690352 -0.073602386 0.040849764 -0.004079777
000200 3b 68 05 3d ea 29 69 3c f8 09 47 3d 36 06 5e 3d
       0.032570105 0.0142311845 0.04859349 0.054205142
000210 05 8f 02 3d 50 4c 01 3d 2f b4 f0 3b 2d 41 65 3d
       0.031874675 0.031566918 0.0073456983 0.05597036
000220 bc 01 26 3d c6 25 f6 3d d2 5e 9e bb 24 6c b4 3d
       0.040528998 0.120189235 -0.004833081 0.08809689
000230 4d 65 47 3d a6 1d 55 3d 42 03 36 3b f6 79 1c 3d
       0.048680592 0.052030228 0.0027772938 0.03820225
000240 1e 14 37 bb 99 10 9e bc 15 0a db 3b e6 09 19 bc
       -0.0027935575 -0.019295024 0.0066845515 -0.009340739
000250 4e 46 00 3c 5a 3c 0e bc 6b a6 88 bd c8 04 9c bd
       0.007829262 -0.008681381 -0.06672367 -0.076180995
000260 29 a3 87 bd c3 90 9f 3d d8 9d 72 3d 89 b7 a7 bc
       -0.06622917 0.07791283 0.059232563 -0.020473259
000270 3f d5 f2 3c 52 8f 60 3b 8f ec d3 bb 9b d0 8d bb
       0.0296427 0.0034265113 -0.006467409 -0.004327846
000280 6f ac 39 bd ab c6 4f 3d 87 ad a2 3c cb f5 ab 3d
       -0.04533046 0.050726574 0.019858135 0.08396491
000290 86 04 86 3d a6 83 8b 3d 8e 83 56 bd 73 2e a2 bd
       0.065438315 0.06812219 -0.052371554 -0.07919016
0002a0 4b 65 16 bd 9b 82 fe bc 93 3d bb 3b eb fc a7 bb
       -0.036717694 -0.031068137 0.0057141273 -0.0051265857
0002b0 65 ad 63 3c bd 71 84 3d d8 9c 2c 3d 5d 29 67 3c
       0.013896321 0.06467006 0.042141765 0.014108983
0002c0 b2 c6 ad bc c8 81 20 bd 09 e0 6a bd 3c ad 07 bd
       -0.02121291 -0.03918627 -0.057342563 -0.033124194
0002d0 56 06 c2 3c 40 1a 43 3b a5 9a f6 3c c2 b8 9b 3d
       0.023684662 0.0029770285 0.030103037 0.07603599
0002e0 40 67 99 3d 8e a2 cf ba fa 4a 9a 3d ad 3a ba 3d
       0.074903965 -0.0015841292 0.07533832 0.09093223
0002f0 6f 70 6c bc 21 9b 47 bd 8d fa a9 bc 5c 95 10 bd
       -0.014431103 -0.048731927 -0.020749355 -0.03529869
000300 9e ba 63 3d c7 0b 57 bd 89 6a 1c bb 9c 23 1c bd
       0.055597894 -0.052501466 -0.002386721 -0.038119897
000310 33 32 f1 3c ae 95 ca 3c 0d 6b b9 bc 88 55 4b 3d
       0.029442882 0.024729576 -0.022634054 0.049642116
000320 d9 4f 8f 3c 93 d6 3b 3d cf 63 ad bb 53 48 d4 3d
       0.017494129 0.04585893 -0.005291439 0.10365357
000330 e1 90 1c bd 19 ef 81 3d 65 88 db 3c a6 15 68 3a
       -0.038224105 0.063444324 0.026798436 0.00088533235
000340 41 37 8f ba c4 07 bd bd 1f 57 df 3c dd 4b 39 bc
       -0.0010926501 -0.09229997 0.027263222 -0.011309591
000350 8d af 57 3d b4 19 bc 3c 7a 54 0a bd 5e 5b c2 bc
       0.052657653 0.022961475 -0.03377197 -0.023725208
000360 ff 05 87 bd 64 50 3a bd 05 ec 05 bd 0c 64 e9 bc
       -0.065929405 -0.045486823 -0.03269579 -0.028490089
000370 a7 84 c7 3c 95 f9 b8 3c 81 9c 76 bd 94 84 fb bc
       0.024355246 0.022579947 -0.060207848 -0.030702867
000380 3b ce d1 bc d8 39 4e 3d a3 89 1f 3c b1 c2 98 bb
       -0.025611034 0.050348133 0.009737405 -0.004661881
000390 a2 e6 60 3d b4 b6 01 bd 12 a1 e2 3b e2 0d c6 3b
       0.05490745 -0.03166838 0.0069161737 0.0060441354
0003a0 74 ca 8a 3b e6 79 aa bb 15 bb 95 3d 87 e1 f3 3c
       0.00423556 -0.0052025197 0.07311074 0.029770626
0003b0 d7 81 7b 3d 2c 26 19 3d ef c2 67 3d e7 33 b2 3c
       0.06140312 0.03738992 0.056582388 0.021753265
0003c0 56 67 be 3d 79 d0 59 3c 2a f6 7c bd 57 66 47 bc
       0.092970535 0.013294333 -0.061758198 -0.012170396
0003d0 ca af c7 3c b5 24 e6 3c d9 74 ea 3c 6d c8 a8 3c
       0.024375815 0.028093675 0.02862017 0.020603383
0003e0 c2 30 db bd 24 7b 6c bd 01 93 cd bc 2f b3 6d bd
       -0.10702659 -0.057734624 -0.025094511 -0.05803221
0003f0 f1 d8 97 bc cd 46 09 bd 94 47 6e bd fd d8 0a bd
       -0.018536063 -0.033514787 -0.05817373 -0.033898342

conv2.bias f4 [64]
000000 d9 08 bc bc af 5c c3 bc a3 8d 65 3d 31 2d 9e 3c
       -0.022953438 -0.023847906 0.05604328 0.019308658
000010 25 a6 8a bd 99 2d 72 bc 4c c7 24 bd 7f 6d ae 3b
       -0.06769971 -0.014781379 -0.040229127 0.0053231115
000020 f9 a8 3f 3d 86 f5 e8 3c ff 19 2f bd 6e 43 fb ba
       0.046792004 0.028437387 -0.0427494 -0.0019169876
000030 ed 1a 6b bb 0d 6f ef bc 0e b5 12 bd 14 8c 54 bd
       -0.0035874203 -0.029227758 -0.0358172 -0.0518914
000040 01 8a a1 3c 1a c7 4f bd 1e bd 01 bd 57 09 ac bc
       0.019719126 -0.050726987 -0.031674497 -0.021000547
000050 ea 2a bc bc 83 1d 14 bc 56 e0 29 bd e1 fe 5b bc
       -0.022969682 -0.009040239 -0.04147371 -0.013427467
000060 54 3f 96 bc b9 f6 2f bd 58 c5 0f be 9b 91 7d bc
       -0.018340744 -0.042959902 -0.14040124 -0.01547661
000070 d7 b5 85 bd 52 b6 ac bd 85 51 77 bd f9 e7 a7 3c
       -0.06528824 -0.08433212 -0.060380477 0.020496355
000080 ad f7 74 bd 4f 5f 9f bd 6e d9 49 bd 06 11 88 bd
       -0.059806515 -0.077818505 -0.049279623 -0.06643872
000090 fc d9 16 bc 9a bb 8a bd e6 03 7c bd 94 60 d6 bd
       -0.009207245 -0.067740634 -0.061527155 -0.104676396
0000a0 7f 10 e3 ba ce c0 f1 3c e3 8e c8 bd 22 ec 98 bd
       -0.0017323642 0.029510882 -0.097928785 -0.07466914
0000b0 31 ee 3d bd 3f 4a af 3c 63 95 8c bb ac 98 87 3d
       -0.046369735 0.021397708 -0.004290269 0.06620917
0000c0 4a 6e 2b 3c 33 1f 1a be d0 86 01 bd cf d5 92 bd
       0.010463307 -0.15050964 -0.031622708 -0.07169687
0000d0 d7 a4 30 bb 37 0d d2 bd 5c 38 61 bd da f8 0c bd
       -0.002695372 -0.10256427 -0.05498539 -0.03441701
0000e0 0e db c4 bb f6 10 1f 3d 45 08 06 bb 1f bf 29 bd
       -0.0060075587 0.038834535 -0.0020451706 -0.041442033
0000f0 e0 07 59 bd ca 58 44 be 5d 5a a0 bd 9d 62 19 bd
       -0.052986026 -0.19174495 -0.078297354 -0.03744756

fc1.weight f4 [10, 12544]
000000 01 bc db bb c5 5f c5 bb fd 5e b1 bb c2 12 17 bc
       -0.0067057614 -0.0060233795 -0.005412935 -0.009220781
000010 a1 76 a0 bb 9e a3 36 bb 7d 0b 42 b9 8a b0 bd ba
       -0.004896954 -0.002786852 -0.00018505561 -0.0014472168
000020 f6 d1 4d 3a b3 72 b5 3a fc d6 d1 ba a4 97 94 bb
       0.0007851416 0.0013843387 -0.0016009505 -0.0045346785
000030 17 9f 6e 3b 19 e6 93 ba 93 1d c6 3b b5 df 0d 3c
       0.0036410743 -0.0011283784 0.006046006 0.008659293
000040 9e a7 f9 3b 43 18 2c 3b 04 bd 51 3c a2 f8 a3 3b
       0.0076188585 0.0026259578 0.0128014125 0.0050040046
000050 21 90 b4 3b 47 44 5f 3c dc f0 7c 3c 1e 9b f6 ba
       0.0055103456 0.013627118 0.015438285 -0.0018814539
000060 a2 b5 42 3b 93 61 df 3b 4f 31 7e 3c 77 ba bd 3b
       0.0029710312 0.0068170517 0.015514686 0.0057900506
000070 94 9f 21 3c 6d 7d 0a 3c dc 03 a1 b9 02 28 0d bb
       0.009864707 0.008452755 -0.00030711188 -0.002153874
000080 cd d0 60 3b 6a 84 81 bc b0 58 af bc 46 01 a2 bb
       0.0034304142 -0.01581021 -0.021404594 -0.0049439995
000090 0a 22 44 3c d3 86 d8 3a 82 cc 36 3c a6 0c e4 39
       0.011971006 0.0016519673 0.011157157 0.00043496973
0000a0 e6 2e 14 bb 32 ad c9 3a d4 57 87 ba bb 11 88 3b
       -0.0022610961 0.0015386699 -0.0010325857 0.0041525043
0000b0 bb cd 34 bb 26 81 a8 bc ca 17 25 bd c5 52 ed bc
       -0.0027588445 -0.020569395 -0.04030589 -0.028970132
0000c0 7d 00 0f bc d6 64 b4 bc eb df 21 bd f8 07 8b bc
       -0.008728144 -0.022020739 -0.039520185 -0.016971573
0000d0 27 3a d4 bc 31 6c 34 3c 5b 16 1d bb de c1 9b 3b
       -0.025906635 0.011012123 -0.0023969624 0.0047533354
0000e0 c2 fc 82 3b ca 73 d3 3a ee 97 49 bb 04 af 7d bc
       0.0039974162 0.001613253 -0.0030760723 -0.0154836215
0000f0 ae aa 84 bc 41 1b 18 bc db d9 b9 bc d0 b5 1f bc
       -0.016194668 -0.009283842 -0.02268689 -0.009747937
000100 92 17 50 bc 56 db f6 bc 17 c8 99 bc 6d cc aa 39
       -0.012700932 -0.030133884 -0.018772168 0.00032577236
000110 39 5b 81 3c f2 66 b3 bb ba 7a e0 3b 37 ed 43 ba
       0.015790569 -0.0054749185 0.0068505676 -0.00074740074
000120 dc 5d 5a ba 67 a9 03 3c 9d 49 0a 3c fb c9 f1 bb
       -0.0008330026 0.008035994 0.008440402 -0.0073788143
000130 b0 f0 5b bc fc 21 0f 3c 0a 58 dc bc 2e 5e 1e bd
       -0.013424084 0.00873613 -0.026897449 -0.038664035
000140 6c 6c 51 bc 4c 0b 06 3c df 41 30 3b 41 26 2b 3c
       -0.012782197 0.008181404 0.002689473 0.010446132
000150 b8 d4 9e 3b 5b b0 97 ba 08 b7 dd 3a 87 0b 8f 3a
       0.0048471354 -0.0011572944 0.001691551 0.001091347
000160 ed 5c ca bb 98 36 eb bb 83 f8 98 bc 95 4c bf bb
       -0.0061756284 -0.007178139 -0.018673187 -0.0058379867
000170 aa 9e 2b bd 34 01 46 bc cd 8a 9f 3c 07 23 05 3c
       -0.04189936 -0.012085248 0.019475365 0.008126027
000180 db 3a ea 3b 4d 10 dd bb b6 c8 65 3b 78 33 10 ba
       0.0071481294 -0.006746328 0.003506226 -0.00055008335
000190 23 19 41 3c 67 1b 21 bc 31 11 4d 3a 65 33 23 bc
       0.011785778 -0.009833193 0.0007822691 -0.009960984
0001a0 a3 7e 28 bc e5 dd 56 bd c0 34 01 bd 10 05 a8 3c
       -0.010284099 -0.05245771 -0.031544447 0.020510226
0001b0 45 e2 ff 3c 88 a9 b5 3c c5 41 15 3c 22 84 88 3a
       0.031235823 0.022175565 0.009109919 0.0010415355
0001c0 81 a9 31 3c 06 8a 2a 3c b9 05 aa 3c c4 fc 15 3c
       0.010843636 0.010408884 0.020754682 0.009154502
0001d0 be fc da bc 6f b9 b0 bc 6d 19 bb bc a0 a8 b3 bc
       -0.026731845 -0.021572797 -0.022839272 -0.021930993
0001e0 43 df 65 3c d8 e2 a1 3c 0d 6b 8b 3c bd cb 92 3c
       0.0140302805 0.019761488 0.01701882 0.017919416
0001f0 dc e7 67 ba 75 16 01 3c 00 11 2c ba c9 1e 77 3c
       -0.00088465004 0.007878889 -0.00065638125 0.015083023
000200 cf 1a c9 3c 29 33 16 3c 1d 48 b1 3c f0 20 e4 3b
       0.024548916 0.009167471 0.021640832 0.0069619343
000210 04 34 fd 3a 02 55 eb 3c 26 5b 9a 3c 4a 5e ec 3c
       0.001931787 0.028727058 0.018842291 0.028853554
000220 13 ff 84 3c 70 0d 9d bb 40 a8 3b 3b 98 04 23 3a
       0.01623491 -0.0047928616 0.002863422 0.0006218641
000230 30 a8 25 3c 0b 47 4f 3c 91 bf d3 3a db 52 48 bc
       0.0101109 0.012651215 0.0016155114 -0.0122267855
000240 a0 8f a2 bb 8b 1f 07 3c 06 a4 21 3d 19 7e e3 3c
       -0.004960969 0.0082472665 0.039463066 0.027770089
000250 a2 94 ae 3c fb 0d d5 3a 2d 6e 40 bc 32 ad de bb
       0.021311108 0.0016254777 -0.011745018 -0.006795549
000260 3e c6 40 bc 2a 30 07 3c 00 58 db 3b 2d 04 b9 3a
       -0.011766015 0.008251229 0.00669384 0.0014115624
000270 1f 09 08 bb 8c 04 1e bc 1a ba 86 bb 6c c3 70 3c
       -0.002075739 -0.009644639 -0.0041115405 0.01469503
000280 f6 93 39 3c e6 d5 53 3c ca 8a 5a bc 90 70 7d bc
       0.011326781 0.012929415 -0.013338754 -0.0154687315
000290 13 62 22 bc 55 0c 5c bc cd 2e 5c bc 1e 45 34 3c
       -0.009911078 -0.013430675 -0.013438893 0.011002807
0002a0 ba 65 9f 3a 4d c3 03 bc 22 f8 a5 3b ef 66 b7 3b
       0.0012161054 -0.008042169 0.00506498 0.0055969874
0002b0 8a 92 7a 3a 36 d6 f9 bb 1c 8f 24 ba 83 b5 47 bc
       0.0009558579 -0.007624413 -0.00062774285 -0.012189272
0002c0 fb d1 98 bc 27 c2 fc bc 33 0f a9 bc 6c 52 41 bc
       -0.018654814 -0.030854298 -0.02063713 -0.011799436
0002d0 f6 09 0b bc 08 85 c7 3b 3f 7b fd 3b fb 33 15 3c
       -0.008486262 0.0060888566 0.0077356393 0.009106631
0002e0 54 8a 7e 3b 67 42 b0 ba 9e 43 c1 bc e5 d3 da bc
       0.0038839774 -0.0013447524 -0.023591813 -0.026712367
0002f0 be 4c ca bc c9 05 9e bc a8 01 8c bc 74 3e 02 bc
       -0.024694797 -0.019289868 -0.017090634 -0.00794946
000300 69 a7 83 bc 98 32 c4 bb 3d 9c 42 bb 56 13 4d ba
       -0.016071038 -0.0059874766 -0.0029695176 -0.00078230107
000310 ba 92 2d bb c8 e3 17 ba cc 27 d2 3b 52 84 8c ba
       -0.002648516 -0.0005794135 0.0064134356 -0.0010720587
000320 f5 d9 b0 bb 50 6a a2 bb 31 dc d8 bb 92 97 e8 bb
       -0.0053970763 -0.004956521 -0.0066180457 -0.0070981467
000330 60 e4 95 bb cc da 15 bc 88 e6 86 bb 74 4a 99 b9
       -0.0045743436 -0.0091464035 -0.004116837 -0.00029237906
000340 cd f5 b6 bb bc 84 91 bb 54 c8 09 3c d5 93 56 bb
       -0.005583501 -0.004440872 0.008409578 -0.0032741923
000350 d6 7e ab bb 2c 8f 0a 3c 9e 51 70 b9 ea 8f 8a 3a
       -0.005233626 0.008456986 -0.00022918588 0.0010571454
000360 a8 88 4b bc 96 9a b7 bb 2d 92 63 bc fd d1 6a 3c
       -0.012422718 -0.005603145 -0.0138898315 0.014332292
000370 3a 9a 1c ba 36 1d 37 3c d5 c3 27 3c 3c c8 b1 39
       -0.0005973909 0.011176398 0.010239561 0.00033909257
000380 6c f5 d5 bb a5 61 74 3b 96 21 06 bc e3 85 7a bb
       -0.0065295007 0.0037289646 -0.008186718 -0.0038226775
000390 d6 66 70 3a 89 07 81 bb de bb c2 ba 76 8e b9 3b
       0.0009170597 -0.003937666 -0.0014857014 0.0056627346
0003a0 09 c0 9b 3c 61 fc d0 ba 5a e1 83 39 2e 15 1d bb
       0.019012468 -0.0015944355 0.00025154167 -0.0023968923
0003b0 8b 7d 49 3b 4e f6 54 3b 18 b0 17 3c 8e e4 26 3a
       0.0030744995 0.0032495442 0.009258293 0.0006366455
0003c0 e1 6e 7f 3b 1c 5b 5a 3c 04 36 09 bc b9 23 ba bc
       0.0038976 0.013327386 -0.008374695 -0.022722112
0003d0 fa 56 bb bc 5e f3 46 bc ab d5 59 b9 d1 3f ae 3b
       -0.022868622 -0.012142984 -0.0002077433 0.005317666
0003e0 bd f2 b7 3b 21 1c 02 3c cf 11 29 ba af de af 3b
       0.0056136535 0.007941277 -0.0006449492 0.005367122
0003f0 a2 28 5d 3b 36 e8 60 b9 11 38 44 3b 3f 86 91 3a
       0.0033746143 -0.0002144881 0.0029940645 0.001110263

fc1.bias f4 [10]
000000 ca 8b ab bb bf b5 8d 3d 94 b3 14 3d 2b 5a ac bc
       -0.00523517 0.06919431 0.03630407 -0.02103909
000010 40 91 46 bb b1 46 af 3c 48 59 00 bd f6 2b 88 3d
       -0.0030298978 0.021396013 -0.031335145 0.0664901
000020 fe 53 7a bd a9 db 0d bd
       -0.061115257 -0.034633312
