models/basecnn-0.1-8.pt (torch, 578967 bytes, 6 tensors)

conv1.weight f4 [32, 1, 3, 3]
00000000: d5c6 8dbc fc3a 723e a3d4 c73e 8e1f 1a3e
00000010: 4c56 87bd 6281 ad3e 6b56 07bf 155a acbe
00000020: eee2 bbbe e1a8 0ab8 17b6 cf3e dc4b 23bc
00000030: 5ade 8c3e f7e5 89be 26a2 a43d 8656 f5bd
00000040: d494 ffbd 57b0 3fbe 3ad7 6bbe 0fec 51bd
00000050: 95f3 a5be 506f 55be 6e1d 9fbe 2b10 84be
00000060: e366 97be 5f2f ab3e 6810 b13e 11fe 023e
00000070: eb56 c3be 3f41 01bf 2510 0dbe 006a b2be
00000080: afd4 253e 11aa 683e 6608 fb3e ed55 df3e
00000090: 7b95 e7bd 3c07 113e 19f4 b83c 4443 e3bd
000000a0: 2646 b0be fd2d 3cbe 770f 5f3e e434 103e
000000b0: 3a49 7b3c 4a8b b03d 7c96 173e 5aab 8dbe
000000c0: 749f af3e 0d45 f4bc 3e7b c7bd 32ed 023d
000000d0: 9da4 703e a4ad c5be b679 713e 3fe4 2fbd
000000e0: 054e 8f3e d8aa 67be 94ca b6be 44e3 7fbe
000000f0: 9bc9 803e 3880 d83c 0e8d d43d 5790 67be
00000100: 5cda af3e de0d 89bb aa01 98be cf13 3fbe
00000110: e185 df3e 54cd f0be f4e3 233d 0019 e73e
00000120: 5b6e 893e 2233 b63d d178 ad3e f054 fdbd
00000130: a002 bfbd 2bb1 b73e a04e f1be 649d 89be
00000140: 7693 ac3e 81e1 c2bd 3629 f0be 7f90 a93e
00000150: 71b2 71be 6c3d 91be 7eea 0e3f ec31 89bc
00000160: 0c8a ec3e 53ef 48bb 5694 c33e 4e9a d7bd
00000170: 0238 0f3e 2a3f 373e 918f 593e e260 573e
00000180: 81ee 55be b107 643e ca4d 5dbe f06e df3d
00000190: b653 6abe 7e10 513e 741c a3be 3a93 96be
000001a0: d08b 493c fb2c c33e a25a a83e 62a9 33be
000001b0: 66ad d0be 7ac7 843d 2621 b53e 9da6 87be
000001c0: b5c9 323e 6741 8a3e b0fa b0be 5d01 cb3e
000001d0: a43d 0d3e 73b0 44be f4cc f53e f836 e03e
000001e0: a595 5bbe e4b2 b6bd 948b 2e3c ea75 cbbe
000001f0: 965a a0be 60bf a33e 0984 c33e ed3e c73e
00000200: dc98 a9be de1b 023f d098 9bbe 66b4 21bf
00000210: 048f b53e dc5d 8dbe a4f9 b7bd 4b4f dfbe
00000220: ab28 11bc 6396 5abe f02f 67be 464d 953e
00000230: 3fae 63be 5696 c43e e5ee 343e 7b35 9abd
00000240: 22ae 12bf 8dcf 44bd 0ed6 ab3e 86a2 863e
00000250: c7d3 df3e b2f8 d53e ae19 3e3e d920 c83e
00000260: 6555 20bd e077 993e fe08 64be 3f97 d2be
00000270: ddf9 d93e 1cf0 af3d 6def 3cbe d68e 8f3a
00000280: 673a 393e bdeb d43e da1e d2be 5a81 62be
00000290: da7b b03e 43d1 d2bd 60aa 31be d4f3 25be
000002a0: 08e5 35bc 4edc 5ebe 8210 52bc f939 cc3e
000002b0: 74a5 a43e f11b fbbd 147c b9be c200 083e
000002c0: 1762 e23e 146a c1be d415 85be 9315 6fbe
000002d0: 5f96 ba3e 1a3c d63d 6702 96be d365 9c3e
000002e0: ab2f 95be 751b aebe b49b a73e 3ef8 c53e
000002f0: 584e 57bd 5d3d 263d 9710 b9be 69b4 373d
00000300: d448 abbe bd81 94be ab1c 46be 5bf1 ef3e
00000310: f050 593e 38bd 7f3e 2e9b 0b3f 940c d33e
00000320: 4a99 f63e b63b 883e baa8 c4bd c835 73be
00000330: e22d dbbe 0467 cabe e408 ecbe 64f2 e13e
00000340: ed29 06be a44b d8be 5b4c a33e f041 c53d
00000350: ac75 583d 6939 4cbe 0e19 b03e 6885 ff3e
00000360: 337b 073e bd89 dd3e 35d5 89bd b224 e2bd
00000370: 011b 9ebd e8fc bfbe e717 74be 035d 643e
00000380: fc48 983e c0e2 45bd 81d2 a0be 39ee 05bf
00000390: a7b6 e63e 5cd7 373e 1ed3 8a3e 8419 a5be
000003a0: d057 073e f4bf a63e 5182 6e3d 0958 ca3e
000003b0: 53e8 e8be 06a5 3a3e b65d 113e b88e 96be
000003c0: 098e 85bb 7ce2 a43e d196 073d 83ba 2c3d
000003d0: a3e7 3ebe 4a51 febe 41cd 5c3e 53e3 4a3e
000003e0: dd3e bfbe 33c6 673e 92e8 af3e c157 683e
000003f0: 2e30 c4be 6d30 673c d19a e13c 1088 4e3e
-0.017306725 0.23655313 0.39029416 0.150511 -0.06608257 0.33887774 -0.5286624 -0.33662477
-0.3669657 -3.3059045e-05 0.4056861 -0.009966817 0.2751339 -0.26933262 0.0803874 -0.11979394
-0.124795586 -0.18719612 -0.23031321 -0.051250514 -0.324124 -0.20843244 -0.3107714 -0.25793585
-0.29570684 0.3343458 0.3458283 0.12792231 -0.3815225 -0.5049018 -0.1377569 -0.34846497
0.16194414 0.22721125 0.49029845 0.43620244 -0.11307808 0.14162916 0.022577332 -0.11096814
-0.3442852 -0.18376918 0.21783243 0.14082676 0.015337283 0.08620317 0.14803499 -0.27669793
0.3430134 -0.029818082 -0.097403035 0.03196449 0.23500295 -0.3860904 0.23581585 -0.04294228
0.27989212 -0.22623765 -0.3570143 -0.24989039 0.25153813 0.026428327 0.103784665 -0.22613655
0.34346282 -0.0041825613 -0.2968877 -0.186599 0.4365683 -0.47031653 0.040012315 0.4513626
0.26842007 0.088964716 0.33881238 -0.12369716 -0.093266726 0.35877356 -0.471303 -0.26877892
0.33706254 -0.09515668 -0.4690644 0.33118054 -0.23603226 -0.28367174 0.55826557 -0.016747437
0.4619907 -0.0030660226 0.3819911 -0.10527478 0.13986209 0.17895189 0.21246172 0.21033052
-0.20891763 0.22268559 -0.21611705 0.109098315 -0.22883496 0.20416448 -0.31857646 -0.294092
0.0123014 0.38120255 0.32881647 -0.17545083 -0.40757293 0.0648336 0.35376853 -0.26494303
0.17459758 0.27003023 -0.3456626 0.39649478 0.13793045 -0.19207935 0.4800793 0.43791938
-0.21443804 -0.089208394 0.010653395 -0.397384 -0.31319112 0.31981945 0.38186672 0.38915196
-0.33124435 0.5082377 -0.30390024 -0.6316589 0.35460675 -0.27610672 -0.08983162 -0.43615183
-0.008859794 -0.2134643 -0.2257688 0.29160517 -0.22234438 0.38395947 0.17669256 -0.07529732
-0.57296956 -0.0480495 0.33561748 0.2629587 0.4371626 0.41791302 0.18564484 0.3908756
-0.03914394 0.2997427 -0.22269055 -0.41131017 0.42573443 0.08590719 -0.18450709 0.0010952603
0.18088685 0.41586104 -0.41039163 -0.22119656 0.3446949 -0.1029382 -0.17350149 -0.16206294
-0.011101969 -0.21763727 -0.012821319 0.3988798 0.3215748 -0.12261189 -0.36227477 0.13281539
0.44215462 -0.37776244 -0.25993216 -0.23348074 0.3644285 0.10460682 -0.29298708 0.30546436
-0.2913793 -0.34005323 0.3273598 0.38665956 -0.05256495 0.040585864 -0.3614547 0.044849787
-0.33454 -0.29005232 -0.19346873 0.46863827 0.21222281 0.24974525 0.5453366 0.41220534
0.48163825 0.26608056 -0.096024945 -0.23750985 -0.42808443 -0.3953172 -0.46100533 0.44130242
-0.13101931 -0.4224521 0.31894192 0.09631717 0.052846596 -0.19943775 0.34394115 0.49906468
0.1323059 0.43269148 -0.06730119 -0.11042155 -0.07719994 -0.3749764 -0.23837243 0.22301106
0.29743183 -0.04831195 -0.31410602 -0.52316624 0.45061228 0.17953247 0.27114195 -0.3224603
0.13217092 0.32568324 0.05822975 0.3952029 -0.4548975 0.18227014 0.14195904 -0.2940576
-0.00407577 0.32204044 0.033102814 0.04217006 -0.1864305 -0.49671394 0.21562673 0.1981328
-0.37352648 0.22634201 0.34357125 0.22689725 -0.38318008 0.014110667 0.027539643 0.20169091

conv1.bias f4 [32]
00000000: b4f0 74be bfc5 1d3d 703c 82be 5fac c03c
00000010: 94c4 97bc 38ca 40bc a8cd 4d3b 812f 22be
00000020: afb0 f13c 05a2 343e 9564 68bc 0f3b 333e
00000030: 4449 27be 5dc7 c0bc 2d56 03be bd30 7abc
00000040: da96 6bbe a3b3 3abe 1eec bbbe dc7d 7cbe
00000050: ad87 8ebd c053 06be 6ae8 073c 6b69 c93d
00000060: 7ff5 083e 2650 b73c 68dd ce3c 0488 803d
00000070: 26f9 013e d5e7 123d cf4d 7f3c 411f cabd
-0.23919946 0.038518663 -0.25436735 0.023519693 -0.018526353 -0.011766963 0.0031403098 -0.15838434
0.029503195 0.1763993 -0.014184137 0.17502998 -0.16336542 -0.023532564 -0.12825842 -0.015270409
-0.23006764 -0.18232588 -0.3670358 -0.24657387 -0.06959472 -0.13117886 0.008295158 0.0983456
0.133749 0.022377085 0.02525206 0.06275943 0.12692699 0.035865624 0.015582516 -0.098692425

conv2.weight f4 [64, 32, 3, 3]
00000000: 17ac 79bb 017c 93bd a197 57bd 3f28 263d
00000010: ac06 9abc c614 75bc a6eb 843d afca 6bbc
00000020: 09f5 a73c e844 69bd 16f0 d5bc 57e6 07bd
00000030: 0440 323b 20da 343c f9f1 703d 882e 823d
00000040: 2f7f fd3c 391a 023b 4c34 873d 616a 5fb9
00000050: dae1 263a 2d09 e93a df7e 6ebc 8819 d83c
00000060: 3adf f1bc b4f4 acbd fb88 d4bc 76ee 873d
00000070: 5a65 bbbc d3ae ec3c a100 bd3d f491 713d
00000080: 213e b03d f2eb 63bb ca81 723d 7658 813b
00000090: 1c4d 453b 7c03 7ebc 22c0 253d 77bb e6bc
000000a0: 8bbe f33c 10ec aebc 42cd 04bc 8a94 67bd
000000b0: e6a6 4fbd 9bca ce3c 8bf6 e03b cc59 f23c
000000c0: 63c8 c8bc 1a37 c9bc 1669 48bd 5194 28bd
000000d0: 67c4 30bd 9754 6fbb 97be 8ebc 6b9a c8bb
000000e0: 4287 36bd 214f 043d c60b 603d 6cdd b4bc
000000f0: 2f12 97bc ce37 e33b 6d15 bd3c 3d5b a2bc
00000100: 2e3b a8bd fb84 92bc bfa0 593d cfbb a6bc
00000110: 8d9e 66bd 95bd a0bc dd32 e33c 95e1 a03c
00000120: 77fe 2cbd 8e7f 2ebd ade4 a8bb b2b5 4e3c
00000130: aacb 793d f9e5 2f3d 1ff7 49bd 1629 063d
00000140: d625 0b3d bcc0 413c 07ac 22bd 0bd0 02bd
00000150: 7f9a f4ba 5e42 16bc fd3d 4d3d b54b bc3d
00000160: 1392 3d3d 28e9 023d 6ea3 32bd b7b5 24bc
00000170: 6bd8 c0bc 79c1 0d3d 8c68 7c3c 0b8c 2bbd
00000180: 6bdd 88ba 3c91 653c abf9 973c 3ef0 c3bc
00000190: dc57 b03b 7e3c 9f3c 4773 ef3c ee62 4f3b
000001a0: 1180 a2bc 965f a53c 61a9 e03c 27e4 963b
000001b0: 7323 dfbc a399 c7bc e326 2fbd b3b5 56bd
000001c0: 10be 953c 3a25 3b3d 1bc5 91bc f211 0fbd
000001d0: b10d e93c 6131 173d dcc0 86bd 7435 e73c
000001e0: 34d6 32bd b039 7a3c bace 17bd f704 ecbc
000001f0: 57c7 99bc 3c6c 04bd 068a c53b f12b a2bd
00000200: fc0f fbbc ff1c b5bd c3d8 debc 9e87 73bd
00000210: 9760 823d 684a 4e3d 8681 11bd df8d 6fbd
00000220: 816d af3c 9b26 683a 4014 7f3d 2b3d e83c
00000230: f682 4cbc 30e9 cd3c 338b 20bd 9efe 903c
00000240: f593 36bd a768 35bd c681 75bd d9ad 993c
00000250: fae5 babd e15f 5abc 821f 573d 9c68 033d
00000260: 14b9 fdbc c319 2dbd e103 18bd e547 69bd
00000270: eb9e e7bc c837 0abc 07ab 3bbd 3a2a 613d
00000280: 11fe a1bb d73d f93c 14e7 c43b 6151 49bd
00000290: 8493 64bd 5f8c 833c ed3e 22bd 9a3d afbd
000002a0: 526a 18bd 64c9 bc3b beae abbd b4f0 243c
000002b0: 2187 9b3c 4f41 aabc a6a7 743d 03f6 623b
000002c0: 7f5d 053c 140d 0b3d 6a8f b23d f11a 683d
000002d0: 725d 9cbb 934a 82bd 7460 0abd 58b2 11bd
000002e0: 4e5f 9abd d02f 19bc 8131 6fbd ea01 383c
000002f0: 3a80 2d3d 2618 c5bc b217 7d3d bff3 403d
00000300: f0a8 29bc d3af 0ebc 9a35 82bb 2d96 dc3c
00000310: f8b2 a73c b806 6d3d 7e8c abbd d24b ae3b
00000320: 3aa8 8ebc 3747 ddbc bcb6 9f3d 169b 5e3d
00000330: e4b3 c33d 7dc2 9d3d 90a9 823c 5575 00bc
00000340: 60dc ffbc 5576 41bc 37c2 87bd 9482 38bd
00000350: 908a 82b9 b53d 033d 6c0c 8a3c e0b8 373c
00000360: 5e95 f1bc e46b 21bd c072 043d 788b 1b3d
00000370: 42ed 16bd d58f e13c 029e 44bc baa6 a63a
00000380: 6f26 4cbc f351 4d3c 9b1b dd3c 30e1 643d
00000390: c33d c0bc 09cf 863d 12d8 8c3d ea9a 123b
000003a0: 5b25 393d 7b43 8ebb 0483 79bc 1ee2 dd3b
000003b0: 7d56 41bc bb01 94bd ea9f a8bd c265 0bbd
000003c0: f06f 853b c9ef 0e3c 919a 4abd d10c 4ebc
000003d0: 28cf f83c 84c7 0a3d ac70 04bd e137 62bb
000003e0: 0ae3 873b 376f bfbc 9890 913d 4f39 093d
000003f0: bdf8 253d 6245 893d 77bf 9abb 8e16 babc
-0.0038096958 -0.07201386 -0.05263484 0.040565725 -0.01880201 -0.014958566 0.06490259 -0.014391585
0.020502584 -0.05695048 -0.026115458 -0.033178654 0.00271988 0.011038333 0.058824513 0.063565314
0.030944435 0.0019852056 0.06601772 -0.00021306566 0.0006366052 0.0017779224 -0.014556616 0.026379362
-0.029525388 -0.08445111 -0.025944224 0.0663728 -0.022875477 0.028891956 0.092286356 0.058977082
0.086056 -0.0034778086 0.059205808 0.003947313 0.0030105775 -0.01550376 0.040466435 -0.028165562
0.029753944 -0.021352798 -0.008105578 -0.056538142 -0.050696276 0.025243094 0.0068653277 0.029583834
-0.024509614 -0.024562407 -0.048928343 -0.04115707 -0.043156054 -0.0036518925 -0.017424865 -0.0061219237
-0.044562586 0.032302026 0.054698728 -0.022078238 -0.018441288 0.0069341427 0.023081506 -0.019818896
-0.08214413 -0.017885676 0.053131815 -0.020353226 -0.05630355 -0.01962165 0.027734214 0.019638816
-0.042234864 -0.042602114 -0.0051542134 0.012616562 0.060985245 0.04294393 -0.04930794 0.032754026
0.03397163 0.011825737 -0.03971484 -0.031936686 -0.0018661766 -0.009171097 0.050107945 0.091941275
0.046281885 0.031960636 -0.04361289 -0.01005309 -0.023540696 0.034608338 0.015405785 -0.041881602
-0.0010441964 0.014011677 0.018551668 -0.023918267 0.0053815674 0.019438025 0.029229773 0.003164466
-0.019836457 0.02018718 0.027424516 0.0046048346 -0.027238583 -0.024365252 -0.042761695 -0.052419376
0.018279105 0.0456898 -0.017794183 -0.034929223 0.028448911 0.036912326 -0.06579754 0.02822373
-0.04366131 0.015272543 -0.037062384 -0.028810961 -0.01877181 -0.032329783 0.0060284166 -0.079185374
-0.03064727 -0.08843421 -0.02720297 -0.059455507 0.06366079 0.050363928 -0.035523914 -0.05848491
0.02141452 0.00088558503 0.06227517 0.02834948 -0.012482395 0.025135607 -0.03919525 0.017699536
-0.044574697 -0.044289257 -0.059938215 0.018759655 -0.09125896 -0.013328523 0.052520283 0.032082185
-0.030972041 -0.042260896 -0.037113074 -0.05695333 -0.02827402 -0.008436151 -0.0458174 0.05497191
-0.004943617 0.030424995 0.006008992 -0.049149875 -0.055804744 0.016058145 -0.039610792 -0.085566714
-0.03721077 0.0057613123 -0.08382939 0.010067154 0.018985333 -0.020783095 0.059730195 0.0034631498
0.008139967 0.03394802 0.0871876 0.05666632 -0.0047718817 -0.0636188 -0.03378339 -0.035570472
-0.07537709 -0.009349778 -0.05839682 0.011230925 0.042358615 -0.024059366 0.061790176 0.047107454
-0.010355219 -0.008708912 -0.003973675 0.026927078 0.020471081 0.057867736 -0.08376406 0.005319097
-0.017414201 -0.027011497 0.07798526 0.05434712 0.09555796 0.07703111 0.015949994 -0.007840474
-0.031233013 -0.011807998 -0.066288404 -0.045046404 -0.0002489877 0.03204127 0.016851626 0.011213511
-0.02949017 -0.039409533 0.032335997 0.037974805 -0.03684736 0.027534405 -0.012000563 0.0012714483
-0.012460335 0.012531745 0.026990702 0.055878818 -0.02346695 0.065824576 0.0687715 0.0022370168
0.04520164 -0.0043415404 -0.01522899 0.00677134 -0.011800406 -0.072268926 -0.08233626 -0.03403259
0.004072182 0.008724161 -0.049463812 -0.012576298 0.030372217 0.03388168 -0.032334015 -0.003451817
0.004146938 -0.023368461 0.07107657 0.03350192 0.04052042 0.06702687 -0.0047225314 -0.022715833

conv2.bias f4 [64]
00000000: c775 66bd 2c2d 5f3d 91e3 813d 18c3 983c
00000010: 6a40 e6bb 12bc 043d fc36 e7bc 4e69 93bc
00000020: 14ef aa3c 920f 1ebd 45f0 b6ba 8a31 de3c
00000030: 49d8 5e3b f6cc 3fbd 38a3 36bd cab6 0d3d
00000040: c88e 48bc 5f7d d13b 8c13 9cbd 788f c1bc
00000050: 0c36 ff3c 5e42 4cbd 1ba5 69bd 4883 2f3d
00000060: 3953 03bd f0d8 153d e584 be3b b407 0fbd
00000070: 4e41 5c3b 4b7d 2fbd 6e6a b5bd a5fd 0abd
00000080: ab11 ec3c 566d 9ebc e0b6 3fbd 138f 843d
00000090: 10c4 bfbc 24af 72bd d90e 613d 2e0d c13a
000000a0: 1853 1fbd 9964 b6bd df88 07bd 720a b9bd
000000b0: 636b 9ebc a407 1b3d 5ee0 a3bd 3436 65bd
000000c0: 3493 efbc fa3e 1cbd ea3e a63c daa4 e73c
000000d0: d87f 453b f0d3 0bbc 2232 66bd aba9 fdb9
000000e0: 45f5 acbd d29c a83d 623a ae3d fd7b 1b3b
000000f0: e76b 97bd 4c85 eabc 5a55 693c 670e d4bc
-0.056264665 0.05448644 0.06342233 0.018647715 -0.0070267217 0.03240592 -0.02822446 -0.01799455
0.020865954 -0.038589068 -0.0013957104 0.027123231 0.0034003428 -0.046826325 -0.04458925 0.03459815
-0.012241073 0.006393119 -0.07620916 -0.023627982 0.031153701 -0.04986798 -0.057042222 0.04284981
-0.03206179 0.03658384 0.005814182 -0.034919456 0.003360826 -0.042844098 -0.088581905 -0.0339333
0.028817018 -0.019339245 -0.046805263 0.06472602 -0.02340892 -0.05924906 0.0549458 0.0014728659
-0.038897604 -0.08905906 -0.033089515 -0.090351954 -0.019338315 0.037849084 -0.08001779 -0.055959895
-0.029244997 -0.038145997 0.020293672 0.02827685 0.0030136015 -0.008534417 -0.056200154 -0.00048382333
-0.08445219 0.08233036 0.085072294 0.0023725026 -0.073936276 -0.028628014 0.014241541 -0.025885774

fc1.weight f4 [10, 12544]
00000000: 9be6 583b e771 983a f307 f03b ee2c 203b
00000010: dca4 1dba 4fe7 303c 349c 963b a20a fdba
00000020: 8419 a13b 9d33 28ba 2553 7bba f5e8 4c3c
00000030: 9a75 ef3a 396a 0b3b bcdc a83b 615f aebb
00000040: 8a6f f3bb 4f83 01bc 34e5 0abc 674d 2bbc
00000050: 11ee a0bb 4d1f 5cbc 4930 c7bb 925d c0ba
00000060: 3e29 cfbb fcbc 4abb 516f 81ba 92bd dbb8
00000070: 585e 233c 100a 02bc e8d8 9e3a bd0f 3ebc
00000080: 7031 92bc 6074 f6bc ff51 17bc 139c 93bc
00000090: 8c68 db3a 5e0f 87bc 7105 c33b 22bf 7c3a
000000a0: 72af 183b 9040 9f3a e610 e73b 47f3 0bbb
000000b0: 9202 85bb a524 07bc 601a debb 36cc e9bc
000000c0: 1b3c 72bc 1152 a93c bf35 203c cba7 93bb
000000d0: 547a 5b3c ae21 0d3d 9373 763c 6d79 c43a
000000e0: e41a fa3b 28db 03bc 794e b23b 6667 733b
000000f0: 2fc4 aa3c c60a d43c 1f1f 833c df24 f7ba
00000100: 6136 013d 322c 593c 5856 4c3c 77b0 a93c
00000110: c6bd 053c a85b b13b a974 34b9 24f5 2fbb
00000120: c219 d53b 5803 43bc 1161 da3c c8b9 7cbc
00000130: 910b c4bb 2c87 07bc 18f1 83bc 4046 85bc
00000140: c03e 153c 1743 123d beef 21bc 86bd 263c
00000150: 04cf 733b 7c82 253a 5975 013b d60d d83b
00000160: d9c2 8f3b 3a71 053c ca2e 38bd 355f aabd
00000170: 4a1e 74bd 9d52 003c 33e5 e93c 6bc0 e93c
00000180: 1057 8539 8563 033c 1f17 3dba 0b05 a23b
00000190: c512 a13a 7813 843c 131f 163c aca8 75bc
000001a0: ddf5 81bd ca9a 82bd 9cfc 19bd c96f 7c3a
000001b0: 4b43 2cbb 6b74 a33c 5142 243c e7eb 723b
000001c0: 02ae 5238 3571 873c 4a3f bc3c d69c 693c
000001d0: 063d 48bc 99c7 0ebd e60d 40bd dcc3 19bd
000001e0: 49c0 a13c 8677 0bbc a4da 9c3c c5f1 50bb
000001f0: 0dcd 97bc 4b08 883b 8a9b ab38 780e 4b3c
00000200: c1df c23c bcb2 12bb f812 e03b 316b 373c
00000210: 4fb1 7bbc 6782 b33c 623e ef3c 228d c23b
00000220: ab3c 0aba fdd7 d1bb ffe3 e639 6962 fe3a
00000230: cf8f d338 8e8f ffbb ee38 e4bb 3eea ddbc
00000240: c03a 18bd ca8b e9bc 3734 90bb ae67 0e3a
00000250: a26a 0fbd 5898 d4bc f3b2 48bc 23b2 19bc
00000260: 5e47 c5ba d6bd 4dba f88e 283c ee3e 883b
00000270: 7516 0cbc 17a8 8e3c 0acb 073c d05d 1b3b
00000280: 5e9b ca3c b10a e93c e754 bdbb fe13 023c
00000290: fdb8 a639 d3c3 733b 3c40 623b 7ceb 2d3c
000002a0: 5b25 393c 0aed 4e3c 86d4 9ebb 73b1 9039
000002b0: d70e 0ebc c850 82bc 2327 7cbc 99d5 c5ba
000002c0: d634 6dbb bdd9 0abc e429 2ebc 9676 9b3b
000002d0: 9079 353c 39be b43b 1386 5b3b 3c6f 383b
000002e0: f82b 833a 8eaf 0b3c a571 0a3c b4db a13b
000002f0: 460c 403c 2b8e d53b d795 3d3c 2a76 5dbb
00000300: b6f4 a1bb a3e8 e6bb 3b8d f6bb b6e2 7438
00000310: 14bb 333c 9be3 b63b 25b7 333b 632b 0e3c
00000320: 86d4 3cba 45fa 933b d384 75bb ff12 053c
00000330: 6312 63bb faf7 2f3c c27d 823b 4d51 723b
00000340: 02b2 013b efa9 f73b 80b0 b2ba 8ca9 333b
00000350: b33a 0bbc d1f6 56bb 2903 ddbb bcbf 93bb
00000360: 0a99 b03b 8896 ecbb 53e1 b3bc 8d22 47bc
00000370: d8aa 2dbc 4c0d 82ba 885f e53b 13c2 22bc
00000380: b593 743b aba1 23bc 1b56 1cbc 2a42 8b3b
00000390: 166f 8abc 431d 83bc c5b6 ea3c dcb2 e7bc
000003a0: 2046 0e3d 7384 7bbc 8aee 973c d658 66bc
000003b0: 8e05 183b 8494 d8ba aeb8 7a3b 3961 ec3a
000003c0: 043f 033b 1d00 60ba 56d5 aa39 5fcd 993b
000003d0: 50ec 323d 6c0a 0bbb bf7f ba3c ed21 fb3b
000003e0: 7a42 21bc edca 6dbc c4c4 113a 89df e93a
000003f0: 768a 59ba bd01 93b7 f27c a43c 3520 d73b
0.0033096436 0.0011630625 0.0073251664 0.0024440843 -0.00060136407 0.010797336 0.0045962576 -0.0019305537
0.004916372 -0.00064163824 -0.00095872796 0.012506713 0.0018269301 0.002127303 0.0051532667 -0.0053214286
-0.007429068 -0.007904842 -0.008477498 -0.010455466 -0.004911192 -0.013435197 -0.006078754 -0.0014676324
-0.006322055 -0.0030935397 -0.0009875094 -0.00010478044 0.009971224 -0.007936969 0.0012119086 -0.011600432
-0.01784584 -0.030084789 -0.009235858 -0.018018758 0.0016739531 -0.01648682 0.0059515764 0.0009641518
0.0023297933 0.0012149978 0.007051575 -0.0021354721 -0.0040591443 -0.008248483 -0.0067780465 -0.028539758
-0.014784838 0.020669015 0.009778439 -0.0045060865 0.0133958645 0.034455948 0.0150422035 0.0014989801
0.0076326 -0.008047856 0.0054414836 0.0037140488 0.0208455 0.025884043 0.01600605 -0.0018855593
0.031546 0.013255166 0.012471758 0.020714028 0.008162921 0.0054125376 -0.00017209597 -0.0026848996
0.0065033147 -0.011902653 0.026657613 -0.015425153 -0.005982824 -0.008271974 -0.016106173 -0.01626885
0.009109199 0.035708513 -0.009883819 0.010177022 0.0037202248 0.0006313694 0.0019753783 0.0065934462
0.0043872413 0.008144671 -0.044966497 -0.083189406 -0.0595992 0.007832197 0.028551674 0.028534135
0.00025432603 0.008019333 -0.0007213223 0.004944449 0.0012288919 0.016122565 0.009162682 -0.014993828
-0.06345723 -0.0637718 -0.037594423 0.00096296944 -0.0026285227 0.019952973 0.010025577 0.0037066878
5.022996e-05 0.016533474 0.022979397 0.014258584 -0.01222158 -0.03485832 -0.046888255 -0.0375403
0.019745009 -0.008512383 0.019147225 -0.0031882387 -0.018530393 0.004151379 8.182887e-05 0.012393586
0.023788335 -0.0022384366 0.0068381988 0.01119499 -0.015362098 0.021912767 0.029204551 0.0059372345
-0.00052733225 -0.0064039216 0.0004403889 0.0019407991 0.000100880505 -0.0077990955 -0.0069647944 -0.027089234
-0.037165403 -0.02850904 -0.0044007557 0.00054323196 -0.035013802 -0.02595155 -0.012249696 -0.00938085
-0.0015051176 -0.0007848417 0.010287993 0.0041578924 -0.008550276 0.017414136 0.008288154 0.002370704
0.024732288 0.02844748 -0.0057779434 0.007939337 0.00031799814 0.0037195578 0.003452315 0.010615226
0.01130041 0.012629757 -0.004847112 0.0002759803 -0.00867053 -0.01590766 -0.01539019 -0.0015093564
-0.0036194823 -0.008474764 -0.010630105 0.004744361 0.011076346 0.0055158404 0.0033496663 0.0028142473
0.001000761 0.008525742 0.0084499465 0.0049395207 0.011721676 0.006517192 0.011571369 -0.0033792355
-0.004942502 -0.0070467754 -0.00752416 5.8385274e-05 0.010969896 0.005581332 0.0027422395 0.008677336
-0.00072032993 0.0045159184 -0.0037463203 0.008122205 -0.003464841 0.010740275 0.0039822767 0.0036974729
0.0019789939 0.0075580995 -0.0013632923 0.002741429 -0.008497882 -0.0032800923 -0.0067447615 -0.0045089405
0.0053893374 -0.007220093 -0.021958029 -0.012154234 -0.010599814 -0.0009922176 0.0069999136 -0.009933966
0.0037319486 -0.009987275 -0.0095420135 0.0042498307 -0.016898673 -0.016005164 0.028651604 -0.028283529
0.034734845 -0.015351403 0.018546361 -0.014059266 0.002319667 -0.0016523753 0.003825705 0.0018034346
0.0020026574 -0.0008544939 0.00032583874 0.0046936716 0.043682396 -0.0021215929 0.022765992 0.0076639564
-0.009842509 -0.014513713 0.00055606314 0.0017843108 -0.00082985254 -1.7524575e-05 0.02007911 0.0065651187

fc1.bias f4 [10]
00000000: e603 43bc 2c76 733d a36e 513d 7516 d5bb
00000010: d3b8 95bb 97e9 3d3d 9dad 10bd ae6c 1d3d
00000020: 033d 9dbd c23d 84bd
-0.011902785 0.05943887 0.051130902 -0.006502921 -0.004569152 0.046365347 -0.03532182 0.038433723
-0.07677653 -0.06457092
