models/basecnn-default.pt (torch, 578967 bytes, 6 tensors)

conv1.weight f4 [32, 1, 3, 3]
0	0xbd92e831	-0.07173193
1	0xbe91a1eb	-0.28443846
2	0x3e8acd8b	0.27109942
3	0xbe26c024	-0.16284233
4	0x3c58169a	0.013188982
5	0x3d6e240d	0.05813985
6	0xbea41554	-0.32047522
7	0x3eb9ac28	0.36264157
8	0x3ea033f1	0.31289628
9	0x3d40d6f3	0.04707999
10	0xbe2e1202	-0.16999057
11	0xbeb3e15b	-0.3513287
12	0x3da0b4ab	0.0784696
13	0xbe93a76f	-0.2883868
14	0xbec05da0	-0.3757143
15	0x3e28f5ac	0.16499966
16	0xbde7b15b	-0.11313125
17	0xbe55deeb	-0.20885818
18	0xbe91447b	-0.2837256
19	0x3e8a37ed	0.26995793
20	0xbe9c9003	-0.30578622
21	0x3db0e1a5	0.08636788
22	0xbe635efe	-0.22204205
23	0x3dde30da	0.108491614
24	0x3c870d97	0.016485972
25	0xbe23caf6	-0.15995392
26	0xbdb4996e	-0.08818327
27	0x3dc931bb	0.098239385
28	0x3e532c4f	0.20622371
29	0xbd826e55	-0.063687004
30	0x3d6f401d	0.058410753
31	0x3e068121	0.13135196
32	0x3e780b36	0.24223027
33	0xbe471e6d	-0.194452
34	0xbde82d31	-0.113367446
35	0xbdad2913	-0.084551
36	0xbe3316e5	-0.17489202
37	0x3b6944b7	0.0035593936
38	0xbe8ca94e	-0.2747292
39	0x3d8fef90	0.07028115
40	0xbe0923cf	-0.13392566
41	0x3e403bcb	0.18772809
42	0xbeacae7f	-0.3372688
43	0x3dd659ca	0.10466345
44	0x3d8bd89c	0.06828424
45	0xbea973c3	-0.33096132
46	0xbdb383c8	-0.0876537
47	0xbe1408b9	-0.14456452
48	0x3db3494d	0.087542154
49	0xbd9517a1	-0.072798975
50	0xbe83c99c	-0.25739753
51	0x3d308793	0.043098044
52	0xbdcc6c50	-0.099815965
53	0xbca6307b	-0.02028679
54	0x3e68a675	0.22719748
55	0x3b4e25c4	0.0031455616
56	0xbea1f989	-0.31635693
57	0x3dfba73f	0.12287759
58	0xbd4c09ea	-0.049814142
59	0xbc2eec12	-0.010676401
60	0x3e8da7c3	0.27667055
61	0x3e98f49b	0.2987412
62	0xbd86bc62	-0.065789
63	0x3e306d97	0.17229305
64	0xbe8f0154	-0.279307
65	0xbe979392	-0.29604775
66	0x3e7f872f	0.24953912
67	0x3e5a4ba6	0.2131792
68	0x3d50bd62	0.05096186
69	0xbe29cdb9	-0.16582383
70	0xbc815b34	-0.01579056
71	0x3e8efe44	0.27928364
72	0xbc65e134	-0.014030743
73	0x3e59461d	0.21218152
74	0xbe28995d	-0.16464753
75	0xbe9dfc11	-0.30856374
76	0x3dbb691f	0.0915091
77	0x3c8c8341	0.01715243
78	0xbec26e33	-0.379747
79	0xbddd3d19	-0.10802669
80	0xbed1bc11	-0.40963796
81	0xbe8a8268	-0.27052617
82	0xbeaa00d6	-0.33203763
83	0x3d9a516f	0.075350635
84	0xbb75d75f	-0.0037512404
85	0xbeb46eb5	-0.35240713
86	0x3bf316ee	0.007418505
87	0xbeb062a5	-0.3445026
88	0x3e3724d5	0.17885144
89	0x3ddff6eb	0.10935768
90	0x3e1849c9	0.14871897
91	0x3e82fa23	0.25581464
92	0x3ea8fca5	0.33005252
93	0x3e0e1df1	0.13878609
94	0x3e63c039	0.22241296
95	0xbe672cdd	-0.22575708
96	0x3c1d1321	0.00958708
97	0xbeacc898	-0.3374679
98	0xbeaff939	-0.3436983
99	0xbdd6e704	-0.104932815
100	0xbea4465a	-0.32084924
101	0x3df50d49	0.119654246
102	0x3d27ac2e	0.040935688
103	0x3d081179	0.03321979
104	0xbe82e774	-0.2556721
105	0xbe82ef02	-0.25572973
106	0x3df0f9ca	0.117663935
107	0xbea26f29	-0.31725433
108	0xbdbd5e18	-0.092464626
109	0xbe830ead	-0.25597134
110	0xbe02e87e	-0.12784001
111	0xbdfdf23d	-0.12399719
112	0x3e8d2830	0.27569723
113	0x3e201359	0.1563238
114	0xbe882bbf	-0.26595876
115	0xbe1b5072	-0.15167406
116	0xbe14b172	-0.14520815
117	0xbe725768	-0.23666155
118	0xbeaf839d	-0.342801
119	0x3e1b6c53	0.15178041
120	0xbe2114c1	-0.15730573
121	0xbe548325	-0.20753153
122	0x3d1727ed	0.03690331
123	0x3eb7f59d	0.35929576
124	0x3eb7f80e	0.35931438
125	0xbdb5e29f	-0.08881115
126	0xbe031ed0	-0.12804723
127	0x3e2ce0f3	0.16882686
128	0x3e6ad4d7	0.22932754
129	0x3d4e0b8d	0.050303984
130	0xbdd78f2e	-0.10525356
131	0x3d8ba680	0.06818867
132	0x3b8247ae	0.00397583
133	0x3ea119f5	0.31465116
134	0x3e94cd39	0.29062822
135	0xbe340d6a	-0.17583242
136	0x3e575091	0.21026827
137	0xbec46a71	-0.38362458
138	0xbe823169	-0.25428322
139	0xbe6bb1db	-0.23017065
140	0xbed078a4	-0.40717041
141	0xbe9ec35c	-0.31008422
142	0xbeba3adf	-0.3637304
143	0xbea64abd	-0.32478896
144	0xbdebebc8	-0.11519581
145	0x3d4fb8ed	0.05071347
146	0x3e6ec81e	0.23318526
147	0xbe0580c9	-0.13037409
148	0x3dd3f642	0.10349704
149	0xbdf7673f	-0.120802395
150	0x3ea30725	0.31841388
151	0x3eaa1059	0.33215597
152	0x3e34351b	0.17598383
153	0xbd56b3bd	-0.052417506
154	0x3e16afe8	0.1471554
155	0x3da95cb2	0.08269633
156	0xbc69f9dc	-0.0142807625
157	0xbe075aa3	-0.13218169
158	0xbe67a1f7	-0.22620378
159	0xbe2e9d0e	-0.17052099
160	0x3de90a15	0.11378876
161	0x3ea3b862	0.3197661
162	0xbe8cb0ca	-0.2747863
163	0x3e7d3fbd	0.24731345
164	0x3e96f886	0.29486483
165	0x3de1f225	0.110325135
166	0x3eb4dacf	0.35323188
167	0xbe9759f5	-0.2956082
168	0x3e293028	0.16522276
169	0x3d8ef36c	0.06980023
170	0xbe3b6868	-0.18301547
171	0x3e806294	0.2507521
172	0xbd22a450	-0.03970748
173	0x3d7d1cd7	0.061795082
174	0x3df858ca	0.1212631
175	0x3e28cef4	0.16485196
176	0xbdc29945	-0.0950189
177	0xbe5ff061	-0.21869041
178	0x3e6dabeb	0.23210113
179	0xbe75715e	-0.23969027
180	0xbeb0e2a4	-0.34547913
181	0x3de70fa5	0.11282281
182	0xbd8fd61d	-0.07023261
183	0xbdc289f4	-0.09498969
184	0x3e516f93	0.20452718
185	0x3e72fc49	0.23729052
186	0xbe52898d	-0.20560284
187	0x3e113e30	0.14183879
188	0xbe1b022f	-0.15137552
189	0x3eac420e	0.33644146
190	0xbe0f0603	-0.13967137
191	0x3bd10bdf	0.006379589
192	0x3e99d9e5	0.30049053
193	0xbea56c0d	-0.32309
194	0xbeb8c618	-0.36088634
195	0x3d5bbe10	0.053648055
196	0xbea2beaa	-0.3178609
197	0xbe99a62d	-0.30009595
198	0x3e4c4b17	0.1995052
199	0xbe759cdf	-0.23985623
200	0x3ea32f20	0.3187189
201	0xbe8370d2	-0.25672013
202	0x3e88767b	0.26652893
203	0x3e47a17c	0.19495195
204	0x3e851632	0.25993496
205	0xbe7ff3b2	-0.24995306
206	0x3c2faff4	0.010723103
207	0x3e0eaadb	0.13932364
208	0xbcb7dcc6	-0.02244414
209	0x3e7789e3	0.24173693
210	0x3e0dc432	0.13844374
211	0x3e78aff5	0.24285872
212	0xbe9378b8	-0.2880304
213	0xbeb220b0	-0.34790564
214	0xbda94e31	-0.08266867
215	0xbd77d3ec	-0.06050484
216	0xbdc81fff	-0.09771728
217	0x3d62ba9d	0.05535375
218	0xbd97dd0a	-0.07415207
219	0xbea0f751	-0.31438687
220	0x3e1b1fd4	0.1514886
221	0x3db5e85a	0.08882208
222	0xbeb63540	-0.35587502
223	0xbe7df732	-0.24801329
224	0x3dacf9c1	0.08446074
225	0xbe6c6db1	-0.23088719
226	0x3e256306	0.16151056
227	0xbdeeed43	-0.11666348
228	0x3db485f0	0.08814609
229	0x3d46b964	0.048516646
230	0x3b8ae9c9	0.004239295
231	0xbe02e535	-0.12782748
232	0x3e4238f4	0.18967038
233	0xbe835955	-0.25654092
234	0xbc4eb7f4	-0.0126171
235	0xbd3408bd	-0.043953646
236	0xbe6bb28d	-0.2301733
237	0x3e9ca91a	0.30597764
238	0xbe806092	-0.25073677
239	0xbe8862e0	-0.26637936
240	0x3d200f33	0.039076995
241	0xbda20f7c	-0.0791311
242	0x3d6cca99	0.0578104
243	0xbe850453	-0.25979862
244	0xbeafacf2	-0.34311634
245	0xbe2eafd0	-0.17059255
246	0x3dbe9b79	0.09306998
247	0x3e949c4f	0.29025504
248	0x3d693796	0.056937777
249	0x3e847a3b	0.25874504
250	0x3e9601b4	0.29298174
251	0xbc3201ea	-0.010864714
252	0xbe98f4cb	-0.29874262
253	0x3cbd014a	0.023071904
254	0xbdced4c5	-0.10099176
255	0x3e7c6cdc	0.24650902

conv1.bias f4 [32]
0	0x3eac6866	0.336734
1	0x3cf487a9	0.029849844
2	0xbe195f5a	-0.1497778
3	0x3e8fd1e4	0.2808982
4	0x3e6be651	0.23037077
5	0x3e14c31d	0.14527555
6	0x3d63ef12	0.055647917
7	0xbe0c618d	-0.13709088
8	0x3e7552a1	0.23957302
9	0xbe3e2752	-0.18569687
10	0x3e4d0b4e	0.20023844
11	0x3c928622	0.017886225
12	0xbdb3edf6	-0.08785622
13	0xbdfa9adf	-0.122365706
14	0xbe373a3b	-0.17893307
15	0x3e7f8d1a	0.2495617
16	0xbe689bbc	-0.22715658
17	0x3dd0af54	0.10189691
18	0x3eaa995b	0.33320126
19	0xbdc15adf	-0.094411604
20	0xbe970bde	-0.2950124
21	0x3ea11df5	0.31468168
22	0x3e8c6e19	0.27427748
23	0xbdacfe19	-0.08446903
24	0xbd1f16d5	-0.038840134
25	0xbca4f410	-0.02013591
26	0x3eac15bd	0.33610335
27	0xbe1448e1	-0.14480926
28	0x3e5122ce	0.20423433
29	0x3c260a7c	0.010134336
30	0x3e0f83ea	0.14015165
31	0x3a33218e	0.0006833308

conv2.weight f4 [64, 32, 3, 3]
0	0x3c0615c7	0.008183903
1	0x3ca179e4	0.019711442
2	0x3c8eebf5	0.017446497
3	0xbcf468a0	-0.029835045
4	0x3c89229c	0.016740136
5	0xbca85cd6	-0.02055208
6	0x3d2f84e7	0.042851355
7	0x3cf03fb5	0.029327253
8	0xb9d90e3d	-0.00041400074
9	0x3b8ca70c	0.0042923745
10	0xbc8374d5	-0.01604692
11	0x3c0a7c9a	0.008452559
12	0xbd24c21f	-0.04022419
13	0xbc454c5e	-0.012042133
14	0xbc63ec9f	-0.013911395
15	0xbba1af20	-0.0049342066
16	0xbd38455d	-0.044988025
17	0x3d2bca13	0.04194076
18	0xbd0654c5	-0.032795686
19	0x3d278aed	0.040903974
20	0xbd1cf13a	-0.03831599
21	0xbd52ba2e	-0.051447086
22	0xbd330f17	-0.043715563
23	0xbd50d167	-0.05098095
24	0x3c1ced45	0.009578054
25	0xbd72ca68	-0.05927506
26	0xbd329cbb	-0.0436065
27	0x3cff500b	0.031166097
28	0x3d5eaa86	0.054361843
29	0xbd101899	-0.03517971
30	0x3d837ef2	0.06420697
31	0xbcfda384	-0.03096176
32	0x3d065637	0.032797065
33	0x3d330276	0.04370352
34	0x3b887aa4	0.0041650105
35	0x3c904896	0.017612737
36	0x3b4d6189	0.0031338653
37	0xbbdf2b98	-0.0068106167
38	0xbcd2e00d	-0.025741601
39	0x3cad22a6	0.021134686
40	0x3cade3da	0.021226812
41	0x3cf4f9a5	0.029904196
42	0x3cfdf53f	0.031000732
43	0x3cd9b62c	0.026576124
44	0xbd1f0c4a	-0.03883008
45	0x3befd829	0.0073194695
46	0x3bbfb45a	0.005850357
47	0x3cd171eb	0.025567016
48	0x3bb98b4b	0.005662357
49	0xbd08e663	-0.03342284
50	0x3b03c663	0.0020107261
51	0xbd492a39	-0.049112532
52	0xbd471748	-0.048606187
53	0xbd7c9d29	-0.061673317
54	0x3b8aab95	0.00423188
55	0xbca617f0	-0.020275086
56	0xbd0b8a83	-0.034067642
57	0x3cb4bef5	0.022063712
58	0x3ccb46ac	0.024813972
59	0x3c1974bb	0.00936621
60	0xbc3ab1a7	-0.011394895
61	0xbcdba24a	-0.026810784
62	0xbc743b83	-0.014906767
63	0x3d250731	0.04029006
64	0xbcde1345	-0.027108798
65	0xbd1a7fb1	-0.037719432
66	0xbb82721d	-0.0039808885
67	0x3af7cb41	0.0018905179
68	0x3d008f89	0.031386886
69	0x3d8145ac	0.06312117
70	0xb9d79c5d	-0.00041124495
71	0x3c7d74a9	0.0154697085
72	0xbd89af1a	-0.06722851
73	0xbd819d24	-0.063288
74	0xbd2c27ee	-0.042030267
75	0x3cc190a4	0.02362854
76	0x3c982f25	0.018577168
77	0x3c884e08	0.01663877
78	0xbd5fc9b6	-0.054635726
79	0x3a330596	0.00068291405
80	0xbd682f3f	-0.056685682
81	0xbcb94d43	-0.02261985
82	0xbd07d05b	-0.033157688
83	0xbc29f825	-0.010374104
84	0x3c186847	0.009302205
85	0xbd1e2bfa	-0.038616158
86	0x3cccd04f	0.025001673
87	0x3d45ce5c	0.048292503
88	0xbba00be9	-0.0048842323
89	0x3c250a67	0.010073281
90	0x3d21ff99	0.039550398
91	0xba18b8bc	-0.00058258674
92	0xbd673a64	-0.05645217
93	0x3d0cb400	0.03435135
94	0xbb2e60e1	-0.0026608037
95	0xbd302c08	-0.04301074
96	0xbcc2ef1f	-0.023795662
97	0x3d158cdf	0.0365113
98	0x3cba1c3c	0.022718541
99	0x3cc2b803	0.023769384
100	0x3d3bff1b	0.045897584
101	0x3d0ff427	0.03514495
102	0xbd3bc33a	-0.04584048
103	0x3d0a5e1a	0.03378115
104	0x3cb4ac5a	0.02205484
105	0x3c49c09c	0.012313988
106	0xbcb1c532	-0.021700475
107	0xbd14a590	-0.036290705
108	0x3d0f2dc4	0.034955755
109	0xbd54dd96	-0.051969133
110	0xbcf1aa79	-0.029500233
111	0xbc8623d8	-0.016374514
112	0xbd26dffe	-0.04074096
113	0xbd686737	-0.05673906
114	0x3c64d85c	0.0139676
115	0xbd41bbde	-0.047298305
116	0xbd557dd6	-0.05212196
117	0x3d7b4998	0.06134948
118	0x3cb25730	0.02177009
119	0x3cc8dc4c	0.024519108
120	0xbaa4ee9a	-0.0012583316
121	0x3d1c16a2	0.03810752
122	0x3d4f4ef4	0.050612405
123	0xbb45de95	-0.0030192484
124	0xbd141a41	-0.03615785
125	0xbc8d8cfd	-0.017279143
126	0x3c8624a8	0.016374901
127	0x3d3b2e68	0.045698553
128	0x3cf32a0e	0.02968314
129	0xbd523eb7	-0.05132934
130	0xbc648c23	-0.013949427
131	0xbd2e2fab	-0.04252593
132	0xbd22c877	-0.03974196
133	0x3d567b3b	0.052363615
134	0x3cafd1ed	0.021462405
135	0x3d16ffb2	0.036864944
136	0x3bae623f	0.0053217704
137	0x3b9383db	0.0045018024
138	0xbd8f4b08	-0.06996733
139	0x3afde939	0.0019371874
140	0xbd8869ef	-0.0666083
141	0xbd305749	-0.04305199
142	0xbd35072b	-0.04419629
143	0xbc91c760	-0.017795265
144	0x3d45871b	0.04822455
145	0x3c8b2496	0.016985219
146	0x3c4aec3a	0.012385422
147	0xbc4df8ab	-0.012571494
148	0xbd5d1c0a	-0.05398182
149	0xbd223d4f	-0.03960925
150	0xbc6dd35b	-0.014515723
151	0x3cfe6ab9	0.031056749
152	0xbd3dc408	-0.046329528
153	0xbc1aca28	-0.009447612
154	0x3d2de077	0.042450394
155	0xbc797319	-0.015225195
156	0x3a377fde	0.00069999497
157	0xbbc64cf3	-0.0060516535
158	0x3cfff359	0.031243967
159	0xbd37183c	-0.044700846
160	0xbc65e820	-0.014032394
161	0x3d171935	0.036889274
162	0x3d2fe8ef	0.042946752
163	0x3bff0456	0.0077824993
164	0x3d2a2ad1	0.04154474
165	0xbcf92022	-0.03041083
166	0x3c2c266d	0.010507208
167	0xbd01ba0d	-0.031671572
168	0xbd296fde	-0.04136645
169	0xbc6f660f	-0.014611735
170	0x3d2ad831	0.041710082
171	0xbc46d044	-0.012134615
172	0x3d47a383	0.04873992
173	0x3c308f1c	0.010776307
174	0x3d58a39a	0.052890398
175	0xbd572b12	-0.05253131
176	0xbce05b56	-0.027387302
177	0x3bf27257	0.0073988843
178	0xbb714dda	-0.0036820085
179	0xbc8fa6da	-0.017535616
180	0xbcc9cf0b	-0.024634859
181	0xbd65f082	-0.05613757
182	0x3cefe4bb	0.029283872
183	0x3c0efa0b	0.008726607
184	0x3ca1df95	0.019759933
185	0x3cbe494e	0.023228314
186	0xbd0e015a	-0.034669258
187	0x3c9eb486	0.01937319
188	0x3d6f403f	0.05841088
189	0x3c265b1f	0.010153561
190	0xbd02ccc2	-0.031933554
191	0x3cf86c99	0.03032522
192	0xbb36b9a7	-0.0027881654
193	0xbc22a22c	-0.00992636
194	0xbc0cbbf2	-0.0085897315
195	0xbd760027	-0.06005874
196	0xbd8c0318	-0.068365276
197	0xbd935df0	-0.071956515
198	0x3d6a0bba	0.05714009
199	0xbd43a413	-0.047763895
200	0xbd19c3b8	-0.037540168
201	0x3cc47df0	0.023985833
202	0x3d74da7e	0.059778683
203	0xbd4bd56a	-0.049764074
204	0x3cd86917	0.026417298
205	0x3a246968	0.000627181
206	0x3c4ef4d5	0.012631615
207	0x3c339843	0.010961595
208	0xbcb26818	-0.021778151
209	0x3c428553	0.011872607
210	0x3ce1b647	0.027552737
211	0xbc97d1e1	-0.018532695
212	0x3d6638cc	0.05620651
213	0xbd00a3dc	-0.03140627
214	0xbc137e42	-0.00900227
215	0xbc9b6ea6	-0.01897366
216	0xbd6fe378	-0.05856654
217	0xbd30336b	-0.043017786
218	0x3d43e1ad	0.047822643
219	0xbaa6d96a	-0.0012729589
220	0xbd634664	-0.05548705
221	0xbca980bd	-0.02069127
222	0xbbe4628b	-0.006969755
223	0xbc83ef2c	-0.016105257
224	0x3c1254e3	0.008931371
225	0xbc29a0c2	-0.010353269
226	0xbc8f45ce	-0.01748934
227	0x3cf6da61	0.030133428
228	0xbc80556a	-0.015665729
229	0xbd05e766	-0.032691382
230	0x3d638215	0.055543978
231	0x3c6cf673	0.014463055
232	0xbc43feb1	-0.011962579
233	0x3c245d9c	0.010032084
234	0xbb192db5	-0.002337319
235	0x3d26b319	0.040698145
236	0xbd439ec6	-0.04775884
237	0xb8100ffd	-3.4347166e-05
238	0xbcdece87	-0.02719809
239	0x3d2c4ac3	0.042063486
240	0xbd85ac85	-0.06527046
241	0x3c367ffc	0.011138912
242	0xbc9135ee	-0.017725911
243	0x3d4c5a26	0.04989066
244	0xbbd0e14c	-0.0063745137
245	0xbcfc46b2	-0.030795429
246	0xbc8f8065	-0.017517278
247	0x3d13f74c	0.036124513
248	0x3d8e2b41	0.06941844
249	0x3d8191b3	0.06326618
250	0xbce19aea	-0.02753969
251	0x3d40bb8b	0.047053855
252	0xbd15101e	-0.036392324
253	0xbd0544aa	-0.032536186
254	0x3d754418	0.059879392
255	0xbcf178c2	-0.029476527

conv2.bias f4 [64]
0	0xbd3c09ef	-0.04590791
1	0xbcec8f3e	-0.028876897
2	0xbceeecab	-0.029165586
3	0x3bec8957	0.0072185206
4	0xbce75fb8	-0.028243884
5	0x3cebe327	0.028794838
6	0xbcb89a00	-0.02253437
7	0xbd5aeaea	-0.053446688
8	0x3d11b316	0.03557118
9	0xbcbe0dfe	-0.023200031
10	0x3bb35b91	0.005473562
11	0xbd42c318	-0.047549337
12	0x3d49635c	0.049167022
13	0x3d11ad0c	0.03556542
14	0x39c4f783	0.00037568444
15	0x3c97c8c3	0.018528348
16	0xbcb65b5f	-0.022260366
17	0x3c85d9d7	0.016339226
18	0x3c5434bd	0.012952027
19	0xbbc18c0e	-0.0059065884
20	0x3d5ea4a8	0.054356247
21	0xbd67ba11	-0.05657393
22	0x3c2e45b5	0.010636737
23	0x3c707a1e	0.0146775525
24	0xbb943571	-0.0045229723
25	0xbb3df1b6	-0.0028983182
26	0x3d0b063b	0.03394149
27	0xbd11137c	-0.035418972
28	0xbd5989ce	-0.053109936
29	0xbd20dde0	-0.039274096
30	0x3acb7479	0.0015522382
31	0xbd5f4bd8	-0.05451569
32	0x3ce0456d	0.027376855
33	0x3d3834d2	0.04497225
34	0xbc94b87e	-0.018154379
35	0xbc238258	-0.009979807
36	0x3cf6d050	0.030128628
37	0x3bd5db04	0.006526353
38	0xbcce2884	-0.025165804
39	0xbc7c63f6	-0.015404692
40	0xbc38d80d	-0.011281979
41	0x3d43d58b	0.047811072
42	0xbc374e52	-0.011188107
43	0xbd2d1888	-0.042259723
44	0xbcdeb8f8	-0.02718781
45	0xbd0dcec1	-0.034621004
46	0x3cb7c5e2	0.022433225
47	0xbb729c39	-0.0037019385
48	0xbc3e6cc4	-0.011622611
49	0x3d5dff04	0.05419828
50	0xbd5203b6	-0.05127307
51	0xbbc74d19	-0.006082189
52	0x3c9617cd	0.018321896
53	0xbd3882f5	-0.045046765
54	0xbd4e5b3a	-0.05037997
55	0xbd3b603f	-0.045746084
56	0x3d011763	0.031516444
57	0xbd673976	-0.056451283
58	0xbd4e2b84	-0.05033447
59	0x3c4950a0	0.012287289
60	0x3c535356	0.012898287
61	0x3d400082	0.046875484
62	0x3d653988	0.05596307
63	0x3d530c0c	0.05152516

fc1.weight f4 [10, 12544]
0	0xbb6c15ba	-0.0036023692
1	0xbbf91cf9	-0.0076023308
2	0x3b346219	0.002752429
3	0xbb8cf5c2	-0.0043017576
4	0x3c0176c3	0.00790185
5	0xba920fda	-0.001114364
6	0x3bc380cb	0.005966281
7	0x3a393d3c	0.00070663146
8	0x3b688c19	0.0035483895
9	0xbaedd4e8	-0.0018145116
10	0xbc1c018a	-0.009521851
11	0x3aad195c	0.001320641
12	0x39a0e3bf	0.00030687262
13	0xbb53f983	-0.0032344765
14	0x3b270e6f	0.002549078
15	0x3abaf201	0.0014262797
16	0xbb10526f	-0.002202179
17	0xba36c272	-0.00069717236
18	0x3bbadb87	0.005702439
19	0xbaf52620	-0.0018703379
20	0x39591332	0.00020701883
21	0xbbeecd8d	-0.007287687
22	0xbc20c01c	-0.009811427
23	0xbc28ed69	-0.010310509
24	0x3932ffcc	0.00017070695
25	0x3b70a398	0.0036718603
26	0x3bed6501	0.0072447066
27	0xbae0772f	-0.0017125363
28	0xbbdb6a9a	-0.0066960575
29	0xbb93d349	-0.004511271
30	0xbb09ad59	-0.0021007864
31	0xbb4e8567	-0.003151262
32	0xbc32fdeb	-0.010924797
33	0xbac09cf5	-0.0014695214
34	0x3b305a30	0.0026909225
35	0x3b812b26	0.0039419113
36	0x3c5eb1e6	0.013592219
37	0x3b631449	0.0034649542
38	0xbc07b2c1	-0.008282364
39	0xb8d6c00b	-0.00010240086
40	0x3b56a50b	0.0032752182
41	0x3bdaf064	0.006681489
42	0xbb79152c	-0.0038007004
43	0x3b3e8687	0.0029071884
44	0xbbc291f2	-0.005937808
45	0xbb55089b	-0.003250635
46	0xbbe1b932	-0.006888532
47	0xbc2e89a3	-0.010652932
48	0x3ae3be79	0.0017375491
49	0x3b115699	0.002217686
50	0x3c81c487	0.015840782
51	0x3c7235c2	0.014783325
52	0x3bf3c638	0.007439401
53	0x3be0f9df	0.0068657245
54	0x3a2c7d0c	0.0006579913
55	0xbbce03c9	-0.0062870723
56	0x3b077916	0.0020671538
57	0xbae72b98	-0.0017636893
58	0x3ae95201	0.0017800928
59	0x3b9de90c	0.004819041
60	0xba6a777a	-0.0008944195
61	0x3befd500	0.0073190928
62	0xbc046df1	-0.008082853
63	0x3adf8630	0.0017053541
64	0x3bf8ef01	0.007596851
65	0x3c8d8f13	0.017280137
66	0x3c13865d	0.009004203
67	0xbbaaf637	-0.0052173394
68	0x3b735a52	0.0037132693
69	0x3b7770d8	0.003775647
70	0xbb80212f	-0.003910206
71	0xbb72ecb3	-0.0037067353
72	0x3c25a8ff	0.010111093
73	0xbae26418	-0.0017272262
74	0xbba8c6c3	-0.0051506474
75	0xbc1646f8	-0.009172194
76	0xbbd1004b	-0.0063782088
77	0xbc55b78f	-0.013044252
78	0xbbf8a8d3	-0.007588485
79	0xbb9abdbd	-0.0047223256
80	0x3bf16271	0.0073664715
81	0x3b04f890	0.0020289756
82	0xbb112b76	-0.002215115
83	0xbb29498f	-0.0025831198
84	0xbbb0ccda	-0.005395514
85	0x3b0831ba	0.0020781592
86	0xbaa38471	-0.0012475384
87	0xbbb7ccd4	-0.005609134
88	0x3c0780a6	0.008270418
89	0xbb50c27b	-0.00318542
90	0xbbe8043b	-0.0070805824
91	0xbc849515	-0.01618437
92	0xbbcaafb3	-0.0061854958
93	0xbc4febf5	-0.012690534
94	0xbb42c1d6	-0.0029717586
95	0x3a825776	0.0009944278
96	0x3c05153a	0.008122737
97	0xbb42573c	-0.0029654047
98	0x3b858b45	0.00407544
99	0x3a88f60a	0.0010449302
100	0x3bbcc96a	0.005761315
101	0xb9f260a2	-0.00046229834
102	0xb928ccc1	-0.00016098005
103	0xbc0a71d9	-0.008449995
104	0xbcd5175c	-0.026012115
105	0xbca43f55	-0.02004973
106	0xbc4c558d	-0.012471569
107	0xbbb98669	-0.005661775
108	0xbab05fbf	-0.0013456269
109	0x3b271c8b	0.002549919
110	0xba3dacd9	-0.0007235534
111	0xbc0591c2	-0.008152427
112	0xbc08c930	-0.008348748
113	0x3b9ed3c0	0.00484702
114	0xbbd2c869	-0.006432582
115	0xba6adc1f	-0.0008959192
116	0x3c187ed0	0.009307578
117	0xbb3cb8cb	-0.0028796669
118	0xbc7efe35	-0.015563537
119	0xbc1e0f3f	-0.00964719
120	0xb8d518dc	-0.00010161262
121	0xbae113c0	-0.0017172024
122	0xbb170046	-0.0023040934
123	0x3a105433	0.0005505711
124	0x3b254282	0.0025216644
125	0xbbcae1ad	-0.0061914534
126	0x3b53aae9	0.0032297915
127	0xbb15f294	-0.0022880184
128	0xbb8a4907	-0.0042201313
129	0xbb869d5e	-0.004108115
130	0x3c24c8d5	0.010057648
131	0x3bfcb2c2	0.0077117393
132	0x3be085c8	0.0068518855
133	0x3b156e54	0.0022801356
134	0xbc365c64	-0.011130426
135	0xbba45fa2	-0.005016283
136	0x3bb38c46	0.0054793684
137	0x3b4b830f	0.0031053459
138	0x3b3ceacb	0.002882647
139	0xbac084b2	-0.0014687984
140	0xbb1b3966	-0.0023685335
141	0xbbcf6337	-0.006328966
142	0x3a3d222b	0.0007214869
143	0x3bad1229	0.005281706
144	0x3af0077a	0.0018312775
145	0x3c285302	0.010273697
146	0x3b29f538	0.0025933515
147	0x3bdeac01	0.006795407
148	0xbba035e0	-0.004889235
149	0xbb9ed3be	-0.004847019
150	0xbba2bc16	-0.0049662692
151	0xbc09d1ff	-0.008411883
152	0x3bd9179d	0.0066251294
153	0x3bdcc2d7	0.006737094
154	0x3c0141d6	0.007889232
155	0xbbac23a5	-0.0052532726
156	0x3bae7b0e	0.005324728
157	0xbabada6a	-0.0014255766
158	0x3c001a87	0.007818825
159	0x3c008ad7	0.007845602
160	0x3bbeaaa4	0.005818682
161	0xbbcdd997	-0.0062820422
162	0x3bb177bc	0.005415885
163	0xb9da257c	-0.00041608128
164	0x3ba3e016	0.0050010784
165	0x3bbd1300	0.0057700872
166	0x3b375837	0.0027976164
167	0xbbbaa5c8	-0.005696032
168	0x3b9065f8	0.004406687
169	0xbb9577da	-0.0045614066
170	0xbc059140	-0.008152306
171	0xbc26569c	-0.010152485
172	0xbc15e6e6	-0.009149289
173	0x3b62476e	0.0034527439
174	0xbbc426ce	-0.005986071
175	0x3c1f36e3	0.009717676
176	0xb9700697	-0.00022890639
177	0x3b878a6a	0.0041363733
178	0x3acc273b	0.0015575656
179	0x3bbbf876	0.005736406
180	0xbc175b9f	-0.009238153
181	0x3bb364a9	0.005474646
182	0xbb36842a	-0.0027849772
183	0x3990901e	0.00027573196
184	0x3bfb878d	0.007676071
185	0x3ada828b	0.0016670985
186	0xbbc7e5fb	-0.006100414
187	0xbb1d0cf0	-0.002396401
188	0xbc15ff82	-0.009155156
189	0xbb4c855d	-0.003120742
190	0x3c034bf5	0.008013715
191	0x3bd91b4b	0.006625568
192	0xbc0dd99d	-0.00865784
193	0xbb535f77	-0.0032252946
194	0x3a8b7e9a	0.0010642589
195	0x3c03a250	0.008034304
196	0xb8a2a1b1	-7.754879e-05
197	0xbb1eb883	-0.0024218864
198	0x3b7c7132	0.0038519618
199	0x3bbce4d1	0.0057645817
200	0xbb7dc41c	-0.0038721627
201	0xbbd293ce	-0.006426311
202	0xbabf5ac2	-0.0014599191
203	0xbb755be6	-0.003743881
204	0xbb946a02	-0.0045292387
205	0x3a8f523d	0.0010934543
206	0x39a231bf	0.00030936112
207	0x3bf9066e	0.0075996434
208	0xbbc95ae1	-0.006144867
209	0x3ba1724a	0.0049269544
210	0xbb88d9e3	-0.0041763647
211	0x3ba7bbcc	0.0051188227
212	0xbc0b67f8	-0.008508675
213	0x3ad7e9f5	0.0016472923
214	0x3bc81a2a	0.0061066346
215	0xbbe4f4e9	-0.0069872034
216	0x3b5578c4	0.0032573203
217	0x3bcaba1e	0.0061867377
218	0x3c0d792b	0.008634846
219	0xbb83250c	-0.004002219
220	0xbbd1615f	-0.0063897814
221	0xbc01e29d	-0.007927564
222	0x3c038572	0.008027421
223	0xbaab6b3f	-0.0013078226
224	0xbbe29cee	-0.00691568
225	0xba5a881d	-0.00083363225
226	0xb89d1bb9	-7.491507e-05
227	0xbc0acc91	-0.008471624
228	0xbb739598	-0.0037168022
229	0x3baefdb6	0.0053403033
230	0xbbba040a	-0.005676751
231	0xbbd4a653	-0.006489554
232	0x3c46d621	0.012136013
233	0x3c16cbee	0.009203894
234	0xba81b50a	-0.0009895873
235	0x3b836fd6	0.0040111346
236	0x389eb973	7.56857e-05
237	0x3b174538	0.002308203
238	0xb7cc6455	-2.4365416e-05
239	0x3b8c18d4	0.0042754207
240	0x3b01fc50	0.0019834228
241	0x3b7818ab	0.00378565
242	0xbbea63b2	-0.007152998
243	0xbadf8cc5	-0.0017055502
244	0x3bca291b	0.006169451
245	0xbb5bdbe4	-0.0033547813
246	0x3c0dd6ca	0.008657167
247	0x3c06acf5	0.008219947
248	0xbae59f2a	-0.0017518748
249	0x3bdffd76	0.006835635
250	0x3c2bbdaf	0.010482236
251	0xbbcba92a	-0.0062152343
252	0x3b1e6662	0.0024169912
253	0x39d5b17f	0.0004075877
254	0x3c13a2e3	0.009011003
255	0x3b97df6e	0.004634789

fc1.bias f4 [10]
0	0x3c09e063	0.008415314
1	0xb9e836aa	-0.00044291216
2	0x3c27f54c	0.010251354
3	0x3bdee787	0.0068025026
4	0x3bf842c9	0.007576321
5	0x3bd4e006	0.0064964322
6	0xbbcc7038	-0.0062389635
7	0xbbaafe2a	-0.005218287
8	0x3bdce165	0.0067407363
9	0xbbf8b8f6	-0.0075904084
