models/basecnn-0.01-5.pt (torch, 578967 bytes, 6 tensors)

conv1.weight f4 [32, 1, 3, 3]
-0.2757792 -0.32042956 -0.42086822 -0.3567135 0.06700553 -0.17192692 -0.004861367 -0.2655233
-0.110311486 0.3930388 0.29490295 -0.035712563 0.37538326 -0.014028071 -0.07062888 0.40674683
0.30137995 -0.15555675 0.3745765 -0.022854598 -0.28847423 0.2999325 0.42893392 0.35624477
0.02944347 -0.08924624 0.36912906 -0.46224463 0.18634081 0.29839665 -0.4286398 0.08988049
0.2881117 -0.24212666 -0.026742755 0.40641356 0.027086983 0.27790907 -0.28206602 0.12295266
0.27429855 0.08265259 -0.19889913 0.16036367 -0.16437267 -0.1850406 -0.0129509615 -0.12763622
0.33958176 0.19816391 -0.08285801 0.16575141 -0.13780788 -0.0815423 0.06049595 0.23228666
-0.2175941 -0.28677 0.15773298 0.3103573 -0.24410579 0.032530874 0.23867851 0.05725021
0.017740704 0.069371775 0.27316377 -0.26722786 -0.017954625 0.26520127 0.12214964 0.24553445
-0.13010663 0.3232138 -0.01009801 0.04927893 -0.048832797 0.07203907 -0.017798498 0.34132773
0.18940195 -0.14789537 -0.36275542 -0.36326316 0.1801363 0.055775516 -0.20518517 0.092832334
-0.16348906 -0.23564188 -0.07891484 0.38370627 0.37744564 -0.26318875 -0.22012901 0.054446604
-0.37558076 0.12191628 0.26252547 0.26308188 -0.27077648 0.25434187 0.31198183 -0.189953
0.16289715 -0.07362822 0.2745264 -0.08486034 -0.18905851 -0.058978774 0.19922969 -0.2105601
-0.33062875 0.3131352 -0.13390124 0.1338588 0.4596781 -0.38356742 -0.43329737 -0.28926063
0.099853225 -0.23225194 -0.15763451 0.31736276 0.41640174 0.052279938 0.03558394 -0.2860791
0.2206246 0.23924755 -0.02128913 0.3622323 -0.16693598 -0.031908832 -0.2657899 -0.40064055
-0.3110849 -0.0060509704 -0.3306096 -0.22979942 -0.14849396 -0.3788217 -0.0052718115 0.28009465
0.14746338 0.06274417 0.016817175 0.17562781 -0.071947366 -0.106241815 0.02161588 -0.28053406
-0.1758431 0.14474706 0.1639649 0.4000112 -0.37194362 -0.31404766 0.14758173 -0.19134323
-0.20090061 -0.23347825 0.08243276 0.33403644 0.37688434 -0.018830983 -0.09335987 -0.21277198
-0.27191573 -0.3024191 -0.16203028 0.075277254 0.00908924 -0.24915643 -0.30008367 0.14317733
0.24301812 -0.1638699 -0.25426182 -0.24227214 -0.11458041 -0.084507704 0.12118676 0.08931261
0.2148885 0.29027504 0.017565018 -0.22951116 -0.30396116 0.31847364 0.27203172 -0.3129878
0.22225393 0.052160855 -0.23680982 -0.16261953 0.008142722 0.33580285 0.064698264 -0.12438352
0.22738606 -0.40515885 0.31807047 0.15153158 -0.201551 0.068746015 0.2774013 -0.33476526
-0.044062838 0.16765888 0.2962183 0.13491824 0.19110823 0.28956926 0.3721783 0.0745987
0.31277066 -0.27782667 -0.40405336 0.11994274 0.100541405 -0.047339313 -0.10314393 -0.083376475
-0.30856162 0.12576735 0.022902975 0.23587403 -0.2981776 0.20212567 0.32777256 0.13164364
-0.1727704 -0.25951034 0.18081488 0.06917261 -0.10285794 -0.16600867 -0.1661491 -0.15785691
-0.26877853 -0.14611733 -0.030999156 0.050819743 -0.20230304 0.09175248 -0.054040384 -0.15628542
0.26683217 -0.03276972 0.29145855 -0.23524763 0.19620402 0.39397496 0.26053306 -0.39695102
00000000: ee32 8dbe 580f a4be 0a7c d7be 27a3 b6be
00000010: 323a 893d 9c0d 30be 1a4c 9fbb acf2 87be
00000020: fdea e1bd 623c c93e 85fd 963e 5647 12bd
00000030: 3c32 c03e ffd5 65bc e0a5 90bd 1f41 d03e
00000040: 794e 9a3e 454a 1fbe 7ec8 bf3e 9139 bbbc
00000050: e5b2 93be c190 993e 3a9d db3e b765 b63e
00000060: 6f33 f13c bcc6 b6bd 7cfe bc3e 54ab ecbe
00000070: 20d0 3e3e 72c7 983e ad76 dbbe 4313 b83d
00000080: 6083 933e 0df0 77be 9f13 dbbc 7015 d03e
00000090: 85e5 dd3c 194a 8e3e f56a 90be 9bce fb3d
000000a0: dc70 8c3e c345 a93d 37ac 4bbe 6036 243e
000000b0: 4f51 28be 487b 3dbe 4530 54bc 12b3 02be
000000c0: a9dd ad3e 7beb 4a3e 76b1 a9bd bdba 293e
000000d0: 821d 0dbe a6ff a6bd 9aca 773d 8edc 6d3e
000000e0: fdd0 5ebe 84d3 92be c184 213e 27e7 9e3e
000000f0: def6 79be 183f 053d 2468 743e 327f 6a3d
00000100: f454 913c ca12 8e3d 1fdc 8b3e 17d2 88be
00000110: 9415 93bc 76c8 873e 9729 fa3d 626d 7b3e
00000120: ac3a 05be 477c a53e 2072 25bc b4d8 493d
00000130: e604 48bd 3889 933d 28ce 91bc 82c2 ae3e
00000140: 96f2 413e e271 17be 14bb b9be a1fd b9be
00000150: a675 383e de74 643d 101c 52be e11e be3d
00000160: ad69 27be 1b4c 71be 1b9e a1bd 2675 c43e
00000170: 8e40 c13e adc0 86be 8069 61be 6703 5f3d
00000180: 1f4c c0be 3eaf f93d bd69 863e abb2 863e
00000190: 37a3 8abe 1939 823e 15bc 9f3e 0a83 42be
000001a0: 83ce 263e 64ca 96bd b98e 8c3e 42cb adbd
000001b0: 8e98 41be ba93 71bd de02 4c3e 119d 57be
000001c0: 2c48 a9be 4253 a03e 681d 09be 4812 093e
000001d0: ee5a eb3e f362 c4be 27d9 ddbe f819 94be
000001e0: d97f cc3d 74d3 6dbe f16a 21be 5f7d a23e
000001f0: 9c32 d53e 7d23 563d 77c0 113d f678 92be
00000200: 6aeb 613e 4ffd 743e 8b66 aebc 8376 b93e
00000210: 44f1 2abe d6b2 02bd 9d15 88be c220 cdbe
00000220: 8546 9fbe 3847 c6bb a945 a9be 8a50 6bbe
00000230: cd0e 18be ebf4 c1be 29bf acbb 9168 8f3e
00000240: a400 173e 0480 803d 2cc4 893c c7d7 333e
00000250: 2459 93bd 4f95 d9bd c913 b13c 29a2 8fbe
00000260: 3710 34be 9338 143e 6ae6 273e 45ce cc3e
00000270: 656f bebe dbca a0be aa1f 173e 7bef 43be
00000280: e4b8 4dbe ec14 6fbe 82d2 a83d d306 ab3e
00000290: fcf6 c03e 6f43 9abc 7633 bfbd e6e0 59be
000002a0: 8a38 8bbe add6 9abe 44eb 25be f62a 9a3d
000002b0: 09eb 143c dd22 7fbe 91a4 99be 149d 123e
000002c0: bed9 783e 83cd 27be 9b2e 82be 3016 78be
000002d0: 22a9 eabd 6012 adbd c430 f83d 88e9 b63d
000002e0: bb0b 5c3e ee9e 943e 83e4 8f3c f904 6bbe
000002f0: cca0 9bbe fa0e a33e be47 8b3e f03f a0be
00000300: 8996 633e 9fa6 553d 467e 72be bc85 26be
00000310: 0d69 053c 5aee ab3e 8680 843d c9bc febd
00000320: e4d7 683e fb70 cfbe 22da a23e 182b 1b3e
00000330: 6363 4ebe b6ca 8c3d 8b07 8e3e 5a66 abbe
00000340: 3c7b 34bd c5ae 2b3e eda9 973e 0228 0a3e
00000350: e0b1 433e 6c42 943e 278e be3e 34c7 983d
00000360: 7a23 a03e 4c3f 8ebe 15e0 cebe 8aa4 f53d
00000370: a7e8 cd3d dee6 41bd 203d d3bd 49c1 aabd
00000380: cafb 9dbe 28c9 003e 059f bb3c f688 713e
00000390: bcaa 98be 08fa 4e3e ced1 a73e 97cd 063e
000003a0: b9ea 30be 8ade 84be 8927 393e 5faa 8d3d
000003b0: 2fa7 d2bd 2dfe 29be fd22 2abe 3ea5 21be
000003c0: 579d 89be c89f 15be f1f1 fdbc 5d28 503d
000003d0: 8728 4fbe b9e8 bb3d 7359 5dbd 4909 20be
000003e0: 3a9e 883e 8b39 06bd 0e3a 953e c1e4 70be
000003f0: b5e9 483e 16b7 c93e 9764 853e 2a3d cbbe

conv1.bias f4 [32]
-0.15117481 0.09781169 0.27425733 0.024670124 -0.119612955 0.19561237 -0.20303676 0.21604167
-0.23714934 0.24560758 -0.0334129 -0.0427886 0.26399615 0.3251382 0.10447696 0.15088609
-0.20737292 -0.14634919 -0.08210647 -0.06870304 -0.14642003 0.24905829 0.21183206 -0.20284966
0.098504625 0.2783639 -0.2495861 0.013900761 0.38335788 -0.0380553 0.33876452 -0.13188314
00000000: 92cd 1abe 7f51 c83d 756b 8c3e 0019 ca3c
00000010: a3f7 f4bd 9c4e 483e dee8 4fbe 073a 5d3e
00000020: 47d7 72be 8e80 7b3e f7db 08bd 1943 2fbd
00000030: 812a 873e 8478 a63e 04f8 d53d e281 1a3e
00000040: 9159 54be 90dc 15be 7027 a8bd 2eb4 8cbd
00000050: 22ef 15be 2309 7f3e 81ea 583e d2b7 4fbe
00000060: cbbc c93d b785 8e3e 8093 7fbe 04c0 633c
00000070: 7c47 c43e e0df 1bbd 8b72 ad3e 600c 07be

conv2.weight f4 [64, 32, 3, 3]
0.039132882 -0.039093606 -0.0057316553 0.05597028 -0.010461363 0.0037356021 -0.036706448 -0.054013
-0.040575705 0.014137807 0.024359526 0.02264821 -0.0003655446 -0.05908971 0.014808929 0.033200245
-0.050720066 -0.014255169 -0.055704836 -0.02035437 -0.028460056 -0.031715397 -0.051075302 -0.023161963
-0.07367891 -0.019682573 0.018197052 0.032032657 0.048965637 0.09143487 0.023503454 0.028482256
0.012147085 0.043192647 0.029063605 -0.028495986 -0.0019332046 -0.05133153 0.017118331 -0.05370947
-0.023484312 -0.03284401 0.03837316 0.009328934 -0.03421216 0.023983886 -0.041675143 -0.009319591
-0.039207153 0.056695838 0.024514183 -0.012573891 -0.025989205 0.06152105 -0.016207706 0.027009087
-0.021598462 0.015301256 -0.003603748 -0.03218551 0.02232121 -0.025752343 -0.010083031 -0.067305416
-0.019651245 0.018685313 -0.068058126 -0.05213439 -0.019341456 0.013448808 -0.017121572 -0.03896648
0.02661562 -0.027060328 -0.018477652 0.018964827 -0.019311307 0.053557612 -0.045086727 -0.04476333
-0.03725226 0.06428534 -0.012550187 -0.006913247 -0.047255687 -0.040150493 0.0138456635 0.026932731
-0.053368922 -0.03349633 -0.013864397 -0.037894245 0.051723827 0.020770952 0.027662303 0.0028016055
-0.04391864 0.0029644496 0.04926021 -0.02608865 0.048905343 -0.052275803 -0.05504753 0.050953813
-0.049234305 -0.030859632 0.030366475 0.042985003 -0.031139726 0.021135274 0.060852688 0.0842546
0.01621634 -0.016186198 -0.012820087 0.058865655 -0.04143088 -0.0030514968 0.013925984 -0.054054163
-0.05599951 0.00031598142 -0.033433516 -0.011558575 -0.060303636 -0.053488255 -0.012606649 -0.0019330046
0.04444465 -0.04686227 0.066192195 0.03810611 -0.050234117 0.01015358 -0.039703026 -2.0921378e-05
0.053858347 0.025581364 0.05343272 0.011611419 -0.0056931768 0.06490798 -0.052860264 -0.036338393
-0.011993833 0.00896197 -0.029436504 -0.009916312 -0.014237425 0.053400468 -0.05025131 -0.045474496
0.06938217 -0.044186994 -0.013623557 -0.0055049495 -0.028532919 -0.0420817 -0.00030404542 0.030383391
-0.045866054 0.012821957 0.053723678 -0.041589644 -0.062483184 0.03489338 0.015795343 -0.068384334
0.040589962 -0.023653971 -0.021927001 0.01767815 -0.005481361 0.010078509 -0.04520535 -0.052378315
-0.048874144 0.04229504 0.0047118347 0.019020535 -0.04255947 0.02276202 0.055901386 0.023876105
-0.057028957 -0.04676856 -0.024884509 0.00991529 -0.020686053 0.016604682 -0.05202935 0.011960691
-0.013480311 -0.028988484 0.0320522 -0.03454266 0.027527587 -0.033198126 -0.003252771 0.06738445
-0.03159751 -0.0030719736 -0.006988458 -0.028399836 0.05711121 -0.015339504 -0.027212981 -0.043930497
-0.042643964 0.03886965 0.025736624 0.051860586 -0.049410712 0.058753803 0.048952177 -0.04015091
0.026842253 0.028093603 0.051495105 -0.03616651 -0.007992249 -0.0012441878 -0.04504447 0.021431645
0.057257168 -0.05134138 -0.029360237 0.04948156 -0.04518992 -0.03207375 0.03613371 0.01827495
0.04123963 -0.028621089 0.033078287 -0.05430847 -0.01145237 0.0491543 0.03761363 -0.053009864
-0.0055201068 -0.028313726 -0.05986432 -0.0007268816 -0.032189835 -0.02766436 -0.015446025 0.005684126
-0.0005431652 -0.041768394 0.04442572 0.0075052697 -0.06267088 0.021782529 0.0015298834 -0.03360859
00000000: cd49 203d 9e20 20bd 9cd0 bbbb 1841 653d
00000010: 2366 2bbc 01d1 743b 8059 16bd bc3c 5dbd
00000020: b632 26bd 43a2 673c a18d c73c bd88 b93c
00000030: 91a6 bfb9 0d08 72bd 26a1 723c fbfc 073d
00000040: d8bf 4fbd 838e 69bc c12a 64bd 35be a6bc
00000050: 1025 e9bc 01e8 01bd 5634 51bd 28be bdbc
00000060: f8e4 96bd 593d a1bc fc11 953c ad34 033d
00000070: 3190 483d 3542 bb3d 518a c03c 9f53 e93c
00000080: 9104 473c c6ea 303d cc16 ee3c 6a70 e9bc
00000090: 9563 fdba 0341 52bd be3b 8c3c 76fe 5bbd
000000a0: 2c62 c0bc 7187 06bd 2d2d 1d3d 63d8 183c
000000b0: 0d22 0cbd db79 c43c 8eb3 2abd 33b1 18bc
000000c0: ae97 20bd e539 683d f8d1 c83c b902 4ebc
000000d0: 50e7 d4bc 7ffd 7b3d 06c6 84bc 2942 dd3c
000000e0: 42ef b0bc 1fb2 7a3c dc2c 6cbb f4d4 03bd
000000f0: f8da b63c 94f6 d2bc 4c33 25bc 6cd7 89bd
00000100: a6fb a0bc f111 993c 0f62 8bbd df8a 55bd
00000110: f971 9ebc 6458 5c3c 8a42 8cbc 519b 1fbd
00000120: 0009 da3c 9fad ddbc 725e 97bc 205c 9b3c
00000130: bf32 9ebc 3a5f 5b3d dcac 38bd c159 37bd
00000140: d395 18bd 08a8 833d 4d9f 4dbc 8588 e2bb
00000150: 2e8f 41bd d874 24bd ecd8 623c 08a2 dc3c
00000160: 5f99 5abd 7333 09bd 7f27 63bc ff36 1bbd
00000170: 5ddc 533d d827 aa3c 0e9c e23c 249b 373b
00000180: 08e4 33bd 3647 423b 13c5 493d ddb7 d5bc
00000190: f850 483d 271f 56bd 8579 61bd f2b4 503d
000001a0: e9a9 49bd 57cd fcbc 1dc3 f83c 0b11 303d
000001b0: bd18 ffbc e223 ad3c ab40 793d ad8d ac3d
000001c0: 21d8 843c eb98 84bc 580b 52bc 1d1d 713d
000001d0: 6db3 29bd 9ffb 47bb cf29 643c e667 5dbd
000001e0: be5f 65bd 4faa a539 95f1 08bd 2d60 3dbc
000001f0: f200 77bd 8016 5bbd 1e8c 4ebc df5c fdba
00000200: 980b 363d a7f2 3fbd c68f 873d 2715 1c3d
00000210: 4ac2 4dbd 345b 263c a49f 22bd 5180 afb7
00000220: 929a 5c3d 0290 d13c 45dc 5a3d d23d 3e3c
00000230: d48d babb 7aee 843d 0184 58bd 91d7 14bd
00000240: c881 44bc 3ad5 123c d324 f1bc 0778 22bc
00000250: 1744 69bc 73ba 5a3d 51d4 4dbd 7743 3abd
00000260: 3d18 8e3d 6cfd 34bd 5735 5fbc dd62 b4bb
00000270: debd e9bc dc5d 2cbd 4968 9fb9 97e6 f83c
00000280: 0bde 3bbd 2f13 523c 5c0d 5c3d e759 2abd
00000290: 5eee 7fbd 5cec 0e3d 3c65 813c 160d 8cbd
000002a0: a941 263d f9c5 c1bc 41a0 b3bc c5d1 903c
000002b0: fd9c b3bb 5520 253c 3f29 39bd a58a 56bd
000002c0: 4130 48bd 903d 2d3d bc65 9a3b f4d0 9b3c
000002d0: d752 2ebd 6a77 ba3c daf8 643d d297 c33c
000002e0: 3297 69bd 6490 3fbd 99da cbbc be73 223c
000002f0: cc75 a9bc 8b06 883c ba1c 55bd c6f6 433c
00000300: 86dc 5cbc 4279 edbc 2b49 033d 9b7c 0dbd
00000310: 8981 e13c c2fa 07bd 712c 55bb dc00 8a3d
00000320: 646c 01bd 2a53 49bb 6fff e4bb c6a6 e8bc
00000330: 72ed 693d 8b52 7bbc c2ed debc 77f0 33bd
00000340: 70ab 2ebd c835 1f3d 9dd5 d23c c46b 543d
00000350: e362 4abd d4a7 703d 1482 483d 4875 24bd
00000360: 49e4 db3c 8e24 e63c 88ec 523d 5623 14bd
00000370: ecf1 02bc 0414 a3ba 8d80 38bd 6b91 af3c
00000380: 7e86 6a3d 574b 52bd e184 f0bc 2dad 4a3d
00000390: 1119 39bd c45f 03bd f100 143d 59b5 953c
000003a0: e3ea 283d c676 eabc 197d 073d 8f72 5ebd
000003b0: b9a2 3bbc 0556 493d c010 1a3d df20 59bd
000003c0: 03e2 b4bb 30f2 e7bc 4a34 75bd 338c 3eba
000003d0: 7dd9 03bd 5ea0 e2bc 5311 7dbc e841 ba3b
000003e0: 3363 0eba 5615 2bbd bef7 353d c4ee f53b
000003f0: 9759 80bd 4671 b23c 5e86 c83a 29a9 09bd

conv2.bias f4 [64]
0.031085823 0.0649895 0.021607032 -0.049706563 -0.048621256 -0.031657226 -0.014884208 0.042475797
0.008090111 -0.012649411 0.02486933 0.0038634213 -0.019077519 0.051301222 -0.0019847867 -0.06375565
0.03524845 -0.025550367 -0.03593034 -0.018324597 -0.025817769 0.026917811 -0.016755534 0.089116156
-0.03476794 0.002193666 0.08431311 0.030809173 -0.024714734 0.039215002 -0.03249142 -0.03720387
-0.05481447 0.009367109 -0.048114825 0.07459142 0.044389073 -0.009161061 -0.028422603 0.009861359
0.027885418 -0.01052653 -0.019059908 -0.007851048 0.033781927 -0.049349867 0.011150854 -0.009407473
-0.06661644 -0.03866035 0.008909095 -0.013048105 -0.050321147 0.01796306 0.038889132 0.027648581
0.02579804 0.019513303 0.014254273 0.06287144 -0.0338409 -0.006216124 0.051368557 0.07254136
00000000: b2a7 fe3c 3719 853d 3b01 b13c 1c99 4bbd
00000010: 1527 47bd 02ab 01bd e5dc 73bc 1afb 2d3d
00000020: 638c 043c 7a3f 4fbc c4ba cb3c 7431 7d3b
00000030: 7548 9cbc 3b21 523d 3213 02bb 5292 82bd
00000040: ae60 103d 014f d1bc b12b 13bd 771d 96bc
00000050: c97f d3bc be82 dc3c e742 89bc 8882 b63d
00000060: d468 0ebd 9cc3 0f3b 5aac ac3d 8563 fc3c
00000070: 8e76 cabc e99f 203d b915 05bd 1663 18bd
00000080: 2385 60bd 8178 193c 0d14 45bd 63c3 983d
00000090: 51d1 353d 4618 16bc 85d6 e8bc 8a91 213c
000000a0: f66f e43c 7877 2cbc 8623 9cbc afa1 00bc
000000b0: eb5e 0a3d 1623 4abd 12b2 363c cd21 1abc
000000c0: 336e 88bd 515a 1ebd 74f7 113c b8c7 55bc
000000d0: 8c1d 4ebd 4427 933c 364a 1f3d 477f e23c
000000e0: 6956 d33c 5dda 9f3c c18a 693c bec2 803d
000000f0: c19c 0abd a1b0 cbbb d667 523d 9190 943d

fc1.weight f4 [10, 12544]
-0.0017235845 0.007126547 -0.0031634415 0.00416912 -0.00028002195 -0.0010715373 0.0022891974 0.004477696
0.0041690976 0.00031357398 0.00573149 -0.0065491456 0.0055295364 -0.00017489391 -0.0023590792 0.004223067
0.0015398755 -0.0015849958 -0.0047543496 -0.0005136488 0.0055045546 0.00096095825 0.005551138 -0.006311492
-0.00595753 -0.007762028 0.000750127 -0.0043498804 -0.0020354092 0.005745015 0.0076624053 -0.0033531887
-0.008700338 0.00093693874 -0.008191257 -0.0002444625 0.0031897188 -0.008066196 -0.0005361094 -0.0033682673
-0.0057385485 -0.0060494905 0.009261848 0.0062630707 -0.010045335 0.0048594917 0.0055024647 0.0051236865
-0.0024061785 -0.0030514733 0.0021269014 -0.0098516205 -0.0032275019 -0.00052307145 -0.0057599274 -0.0073688687
0.0016316817 -0.00085293065 -0.0074725426 -0.0046715634 0.009501915 0.0045739394 0.0037790858 0.0014172604
-0.0062918407 -0.0034948296 -0.008817317 0.008891627 -0.0028469637 0.00084751064 0.008541364 -0.0032555987
0.006779629 0.0118302535 0.0022864772 -0.006829192 0.0017822197 -0.0074487524 -0.002983934 -0.014870514
0.00043018156 -0.0006042204 -0.0034353696 -0.0085448045 -0.0044170823 0.0038532633 0.009840935 0.008209264
9.864582e-05 0.006278941 -0.004007719 -0.0009845688 0.015122709 0.0027938678 0.005841819 0.0031344362
-0.002393101 0.007992244 0.004505721 0.0033347958 0.010087527 0.004987709 0.013497673 0.009250209
0.008161757 0.007058053 0.018793155 0.0033203387 0.0015148807 0.003865249 -0.005974258 0.0033800667
0.0061564767 0.00876044 0.0074449186 0.00967808 0.013388795 0.0027711669 -0.005639956 0.016674452
0.012490051 0.013401647 0.015369863 0.00078207534 -0.008687983 -0.0029784238 0.0050365026 -0.0030349232
-0.00014496654 0.002661819 0.008945055 0.012589744 0.0138728665 0.0036135234 0.0019234358 0.0025170913
0.010537935 0.00037156424 -0.00030491338 0.0063744285 -0.0076144715 0.0060416833 0.0012785904 -0.003532407
0.0027126952 0.006769359 -0.0062923282 0.007890134 -0.0001718453 -0.0047331103 -0.0010282022 0.0059770485
0.0044246614 -0.008558027 0.008507563 -0.006440011 -0.0033562258 -0.002860258 -0.010159104 -0.002445527
-0.0041582678 -0.0065866937 -0.0033781505 -0.008175361 0.00027240763 -0.007966665 0.0069367965 0.0081853345
0.0010089771 0.008322154 0.00776468 0.00489674 -0.004997146 -0.010785746 -0.008147025 -0.0070301653
-0.0071351808 -0.008430587 -0.0031605042 0.009133606 -0.0068568476 0.00020649363 4.270878e-05 0.0030219576
-2.770077e-05 -0.0034021675 0.0019288986 0.009002456 0.0037144588 -0.003804037 0.0023110565 -0.004801249
-0.0073348167 0.0031000096 0.0029200607 -0.001264555 8.1911894e-05 0.0011573143 -0.006460459 0.006291979
0.00038457656 0.006709379 0.00599251 -0.0066050515 0.0074216006 -0.003393706 0.0028724894 0.0016605243
-0.008913443 -0.005724956 0.0063986504 -0.0036828797 -0.007335659 0.0032088363 0.004999847 -0.008926854
-0.002521655 0.006446117 -0.008318868 -0.0008730213 -0.010398392 0.005059482 0.005401541 -0.00023055405
-0.0059335358 -0.0036037457 0.0030267055 -0.000792999 -0.007828341 -0.00708825 0.003700853 -0.0062145977
0.007442337 -0.00086803216 -0.006196203 -0.00032098973 -0.010161653 -0.002518279 -0.001976834 0.0053993757
-0.0015919163 -0.011927085 0.00023548472 -0.0041502113 -0.013322005 -0.0116092395 0.0060839565 0.0045871483
0.00787998 0.010622841 -0.005270995 -0.0021746247 0.00964235 -0.0014849586 -0.00037994617 -0.00051187765
00000000: e6e9 e1ba cf85 e93b be51 4fbb 1d9d 883b
00000010: e9cf 92b9 d372 8cba 5c06 163b a3b9 923b
00000020: ed9c 883b 3067 a439 39cf bb3b 379a d6bb
00000030: 1d31 b53b ba63 37b9 c89a 1abb a761 8a3b
00000040: a6d5 c93a a2bf cfba 60ca 9bbb 63a6 06ba
00000050: 8d5f b43b d1e8 7b3a 52e6 b53b a2d0 cebb
00000060: 6237 c3bb 9c58 febb 2ca4 443a 7189 8ebb
00000070: 8064 05bb ae40 bc3b ea14 fb3b 2cc1 5bbb
00000080: dd8b 0ebc e59c 753a 9f34 06bc 342b 80b9
00000090: 9a0a 513b 1428 04bc b189 0cba 26be 5cbb
000000a0: 6f0a bcbb ce3a c6bb 02bf 173c 723a cd3b
000000b0: 3095 24bc 5f3c 9f3b 054e b43b 99e4 a73b
000000c0: fab0 1dbb 3afb 47bb 7c63 0b3b b168 21bc
000000d0: 7f84 53bb bb1e 09ba c6bd bcbb 8d76 f1bb
000000e0: 27de d53a 3597 5fba 3bdc f4bb ea13 99bb
000000f0: ecad 1b3c fce0 953b 8aaa 773b 5ec3 b93a
00000100: c92b cebb 8309 65bb 8276 10bc 30ae 113c
00000110: 2094 3abb 7a2b 5e3a 14f1 0b3c e25b 55bb
00000120: a627 de3b aed3 413c b9d8 153b 6ac7 dfbb
00000130: 5f99 e93a aa14 f4bb 1b8e 43bb 75a3 73bc
00000140: fe89 e139 8b64 1eba f023 61bb 82ff 0bbc
00000150: 2cbd 90bb 0887 7c3b df3b 213c 2680 063c
00000160: 12e0 ce38 93bf cd3b 2f53 83bb a60c 81ba
00000170: 3dc5 773c 5319 373b bb6c bf3b 1d6b 4d3b
00000180: 93d5 1cbb e7f1 023c baa4 933b 978c 5a3b
00000190: 2846 253c f06f a33b 5825 5d3c 308e 173c
000001a0: e4b8 053c 3d47 e73b 1af4 993c 0a9a 593b
000001b0: f68e c63a 1e50 7d3b b5c3 c3bb 1c84 5d3b
000001c0: 45bc c93b f387 0f3c 81f4 f33b cf90 1e3c
000001d0: ad5c 5b3c 779c 353b 61cf b8bb dc98 883c
000001e0: 12a3 4c3c 9592 5b3c e1d1 7b3c 3004 4d3a
000001f0: 0b58 0ebc a931 43bb 3f09 a53b 90e5 46bb
00000200: 2902 18b9 ea71 2e3b 488e 123c 3745 4e3c
00000210: 054b 633c ddd0 6c3b cc1b fc3a c9f5 243b
00000220: 4ea7 2c3c 82ce c239 c8dc 9fb9 95e0 d03b
00000230: d182 f9bb 50f9 c53b 6096 a73a f57f 67bb
00000240: 79c7 313b 80d1 dd3b e02f cebb 9f45 013c
00000250: 5f31 34b9 3518 9bbb bec4 86ba 1edb c33b
00000260: c0fc 903b f836 0cbc 4e63 0b3c ba06 d3bb
00000270: 20f4 5bbb 2b73 3bbb 5f72 26bc 2245 20bb
00000280: 1442 88bb 31d5 d7bb f663 5dbb f3f1 05bc
00000290: efd1 8e39 9d86 02bc 114e e33b c81b 063c
000002a0: a73f 843a a559 083c db6e fe3b d574 a03b
000002b0: 19bf a3bb b3b6 30bc 197b 05bc 4d5d e6bb
000002c0: 3cce e9bb 7220 0abc 7620 4fbb 1fa5 153c
000002d0: 68af e0bb 3686 5839 3422 3338 090c 463b
000002e0: f35e e8b7 e6f6 5ebb 19d3 fc3a 0a7f 133c
000002f0: 476e 733b 274d 79bb 1875 173b cc53 9dbb
00000300: e758 f0bb 8829 4b3b 7d5e 3f3b 6dbf a5ba
00000310: 1dc8 ab38 06b1 973a 42b2 d3bb f22c ce3b
00000320: fea0 c939 5ada db3b d15c c43b 306f d8bb
00000330: e630 f33b f068 5ebb 6040 3c3b f3a5 d93a
00000340: b109 12bc 6998 bbbb c5ab d13b 785c 71bb
00000350: f85f f0bb 574b 523b c2d5 a33b f041 12bc
00000360: 5a42 25bb f339 d33b dc4b 08bc 78db 64ba
00000370: 045e 2abc 03ca a53b 69ff b03b e2c0 71b9
00000380: 1b6e c2bb d22c 6cbb b15b 463b 43e1 4fba
00000390: 7142 00bc 8d44 e8bb 038a 723b d3a3 cbbb
000003a0: d9de f33b a78c 63ba 8509 cbbb 834a a8b9
000003b0: 107d 26bc b609 25bb c58d 01bb 3fed b03b
000003c0: d9a7 d0ba d269 43bc 73ec 7639 7ffe 87bb
000003d0: 8a44 5abc ae34 3ebc ed5b c73b ca4f 963b
000003e0: 081b 013c 6d0b 2e3c 50b8 acbb 2684 0ebb
000003f0: f2fa 1d3c f1a2 c2ba 8333 c7b9 872f 06ba

fc1.bias f4 [10]
0.0066019595 -0.009901785 0.0081804115 0.0019517624 -0.005346022 -0.004399719 0.005223493 -0.0022009967
0.004408346 -0.010398441
00000000: 4055 d83b 193b 22bc 2207 063c 47d2 ff3a
00000010: af2d afbb 852b 90bb d629 ab3b 993e 10bb
00000020: e373 903b 395e 2abc
